Multimodal Biomedical Imaging Final Project/modelcnn.pth (torch, 172111 bytes, 12 tensors)

conv1.weight f4 [16, 1, 3, 3]
0.122917235 0.45517734 0.20187213 0.110254295 0.26038346 -0.027659502 -0.06489778 0.2512471
0.34110048 0.20724966 0.1874461 0.5059782 -0.15717824 0.10478584 -0.05658174 -0.48903006
-0.23956282 0.17949104 0.23465277 0.36662126 0.05302228 -0.16468783 0.18556383 0.5391149
-0.1486982 0.0044729523 0.4460473 -0.27227455 0.37704858 0.3033889 0.33884072 0.20820154
0.22441724 0.29692048 -0.07859333 0.19611065 -0.026155928 0.34017065 0.37537405 0.17345124
0.19866896 0.09618195 0.009311561 -0.33732745 -0.11029049 0.42277825 0.5653666 0.16044474
-0.31379128 -0.01451733 -0.12998737 -0.6166583 -0.68637514 -0.6243909 -0.58995897 -0.37518737
0.034097344 0.23097906 -0.065879494 0.53394777 0.1742938 0.26346272 0.43041664 0.28930143
0.06954012 0.33284506 0.008068712 0.031016605 -0.061623994 0.11193003 0.028536677 0.21381553
0.0887591 0.39130005 -0.39867532 0.27609238 0.18392819 -0.3440726 0.07626586 -0.007984428
0.36495233 0.28166124 0.35301644 -0.3304442 -0.1513229 0.3192164 0.59711856 -0.43384138
-0.34094483 0.50216794 -0.4340921 -0.49033383 0.36746788 -0.2900138 -0.26647675 0.011609462
0.31299704 0.11713114 0.5226431 0.12165457 0.37815657 -0.386024 -0.42674994 -1.2092974
-0.36081398 -0.44747242 0.3820155 0.2544461 0.05312013 0.18772283 0.40958205 -0.084480844
0.3672265 0.061101176 -0.14468625 -0.766133 -0.37816113 0.19122876 0.461462 0.13555083
0.4105494 0.0024618495 0.41935554 -0.14225595 -0.49018678 -0.26044697 0.47523043 0.27330405
0.31965625 -0.18169026 -0.09361334 -0.09030139 -0.46000862 -0.0016921187 -0.06993247 -0.57694954
0.31367722 0.43319598 -0.55629253 0.35121125 -0.022130053 -0.266868 -0.020766823 0.33184475
00000000: 08bc fb3d 010d e93e 91b7 4e3e 01cd e13d
00000010: fb50 853e 2e96 e2bc 21e9 84bd 76a3 803e
00000020: b9a4 ae3e 4139 543e dff1 3f3e ca87 013f
00000030: 55f3 20be f599 d63d 41c2 67bd 2662 fabe
00000040: f54f 75be 80cc 373e d148 703e c8b5 bb3e
00000050: e42d 593d eda3 28be 7204 3e3e 6f03 0a3f
00000060: 5744 18be d891 923b 5060 e43e 9267 8bbe
00000070: 830c c13e ca55 9b3e 887c ad3e c932 553e
00000080: a2cd 653e f605 983e 8af5 a0bd 3bd1 483e
00000090: f544 d6bc d92a ae3e 0731 c03e 349d 313e
000000a0: e06f 4b3e 0bfb c43d 848f 183c 2fb6 acbe
000000b0: fbdf e1bd 6476 d83e debb 103f a04b 243e
000000c0: 40a9 a0be 18da 6dbc 691b 05be 51dd 1dbf
000000d0: 48b6 2fbf 15d8 1fbf 8d07 17bf 8f18 c0be
000000e0: a8a9 0b3d c685 6c3e d4eb 86bd cdb0 083f
000000f0: 137a 323e 96e4 863e 925f dc3e 511f 943e
00000100: 0d6b 8e3d ab6a aa3e a232 043c 8916 fe3c
00000110: 7169 7cbd 923b e53d c0c5 e93c 75f2 5a3e
00000120: 55c7 b53d 7b58 c83e 2c1f ccbe fb5b 8d3e
00000130: ac57 3c3e 492a b0be 4631 9c3d 1ed1 02bc
00000140: 08db ba3e e735 903e 92be b43e fb2f a9be
00000150: 64f4 1abe 5570 a33e c3dc 183f 7520 debe
00000160: 5290 aebe 148e 003f 5241 debe 090d fbbe
00000170: c024 bc3e b07c 94be a46f 88be 9d35 3e3c
00000180: 2641 a03e 73e2 ef3d f0cb 053f 0826 f93d
00000190: bd9d c13e f0a4 c5be f87e dabe 42ca 9abf
000001a0: 9cbc b8be 1b1b e5be 8997 c33e c246 823e
000001b0: 7e94 593d 6a3a 403e bdb4 d13e 4b04 adbd
000001c0: 1d05 bc3e 3a45 7a3d a228 14be 4b21 44bf
000001d0: 569e c1be 79d1 433e bf44 ec3e d6cd 0a3e
000001e0: 8833 d23e fb56 213b c5b5 d63e 8bab 11be
000001f0: c3f9 fabe 4e59 85be 6751 f33e 82ee 8b3e
00000200: fca9 a33e 030d 3abe 5ab8 bfbd efef b8bd
00000210: 4086 ebbe 15ca ddba c138 8fbd f7b2 13bf
00000220: 4d9a a03e ddcb dd3e 3069 0ebf f6d1 b33e
00000230: 164a b5bc eca2 88be 2f1f aabc 8ee7 a93e

conv1.bias f4 [16]
-0.005100914 -0.06096652 -0.010205569 -0.007314105 -0.009209131 0.30511317 -0.0022799205 -0.014703598
0.05348724 0.017111776 0.20507048 0.28166968 0.25780383 -0.17445843 -0.1381113 0.18896963
00000000: 9125 a7bb 08b8 79bd 4235 27bc 29ab efbb
00000010: e5e1 16bc cb37 9c3e b86a 15bb 5ce7 70bc
00000020: 7015 5b3d ff2d 8c3c fffd 513e 0237 903e
00000030: ddfe 833e 3ba5 32be 0c6d 0dbe 4181 413e

conv2.weight f4 [32, 16, 3, 3]
-0.0316304 -0.034667794 -0.09673829 0.03235124 0.12012765 -0.045209054 -0.11887343 0.014078772
0.07495183 0.01972242 -0.06142559 -0.10169782 -0.0066998224 0.12067523 0.0066068154 -0.022872442
0.15800217 0.0024631098 0.13485938 0.13895828 -0.19069122 0.10086867 0.13194916 0.070593014
0.0017226257 0.17053598 0.027901389 0.041130193 -0.052212693 -0.15187131 0.15850055 0.08149504
0.04548445 0.0011013886 -0.020952921 0.0544589 0.13881917 -0.13076115 -0.1903196 0.04013708
0.04698595 -0.044256482 0.04582031 -0.04440945 0.09629552 0.00455437 -0.18842064 -0.1360296
-0.19370101 -0.23843084 -0.22866334 -0.045146633 -0.29661924 -0.335523 -0.054413725 0.12374593
-0.0034797802 -0.10357178 -0.016605612 -0.048860196 -0.0709542 -0.025346303 -0.12643224 0.081666574
-0.012138441 -0.13844545 0.013918548 0.024199093 0.022027256 0.03290953 0.06254446 0.043829944
0.18523566 0.054148052 0.046584148 -0.019519588 0.15303284 0.12972593 -0.095816486 0.06241094
0.1346034 0.18878745 0.17433445 -0.15840188 0.015187953 0.12721089 0.07675239 0.0019026649
0.13365327 -0.0754467 -0.009059153 0.117105216 0.15461002 0.0021858814 -0.16951324 -0.2100484
-0.08030776 0.121053174 -0.34259674 -0.28790352 -0.3966829 -0.18588936 -0.06448989 -0.47499207
-0.41349074 -0.03754237 -0.45115075 -0.38732073 0.13491835 -0.1627745 0.07885573 0.028526766
-0.051810123 -0.26144046 0.042975273 -0.096610405 -0.03613445 0.048170727 -0.24716412 -0.22472402
-0.00049740484 -0.091769636 -0.1472106 0.032871008 0.026586158 -0.12631004 0.26607043 -0.14507961
-0.06509445 -0.037131354 0.061068717 -0.30456647 0.061118636 -0.16100352 -0.1717379 0.010560462
0.083844304 -0.09265039 -0.1373801 0.0055629076 -0.13648081 -0.19275539 0.17095985 -0.009375979
0.03274905 0.102106996 0.10213644 -0.1779756 0.13526984 0.046698667 -0.16031323 -0.024165936
0.0034559285 0.026888762 -0.035784006 -0.009278381 -0.060486104 -0.020013513 0.023093812 -0.10811844
0.116932705 0.054850955 -0.0023563486 -0.009367888 0.15244532 -0.12786092 0.07003041 0.050533935
-0.113919385 0.11143147 -0.034412194 -0.0022980343 -0.06998812 0.06703013 -0.1719818 0.008816813
0.07374241 -0.15048051 0.063613765 0.003667887 -0.0213563 -0.061377462 0.0491264 -0.039016698
-0.051276747 0.09167081 -0.09784268 -0.040440198 0.015061161 0.0039325203 -0.09231739 -0.07709708
-0.0052923807 -0.13329841 -0.24246335 0.026661545 -0.16258477 -0.18613286 -0.10958125 0.010732583
0.086783335 0.031021005 0.1164874 0.09297379 0.02666106 0.092218414 -0.050242804 -0.029835936
0.051093224 0.08319047 -0.1681359 0.0109016355 0.14268863 -0.062557995 0.027770273 0.13467915
-0.035925843 0.0169452 0.0276189 -0.075966395 -0.06318297 -0.020413077 -0.100203894 -0.009235911
0.1541866 -0.090678714 -0.022467002 0.076029785 0.0047823363 0.07083727 -0.03714255 0.027155055
0.10788314 -0.026717987 0.046341106 -0.019558812 0.101250716 0.0564138 0.15064327 -0.13964264
0.08153341 0.07449207 -0.0870172 0.06208901 -0.041626785 0.096894816 0.16632038 -0.03776327
-0.08085062 0.08862304 -0.30447856 -0.27282476 -0.017361455 -0.040043868 -0.051822547 0.100277364
00000000: e18e 01bd d1ff 0dbd b91e c6bd bc82 043d
00000010: 7c05 f63d 212d 39bd ea73 f3bd a6aa 663c
00000020: 5880 993d ea90 a13c 6699 7bbd f246 d0bd
00000030: 2f8a dbbb 9324 f73d fc7d d83b fd5e bbbc
00000040: 52cb 213e 206c 213b 9418 0a3e 144b 0e3e
00000050: 8f44 43be 3c94 ce3d ae1d 073e 1293 903d
00000060: bac9 e13a fca0 2e3e 7491 e43c 2278 283d
00000070: fadc 55bd 2784 1bbe f84d 223e dfe6 a63d
00000080: e74d 3a3d 785c 903a 76a5 abbc 4c10 5f3d
00000090: 9d26 0e3e 40e6 05be 24e3 42be c766 243d
000000a0: 5774 403d 4946 35bd 14ae 3b3d afe6 35bd
000000b0: 9636 c53d d33c 953b 57f1 40be 584b 0bbe
000000c0: 8f59 46be 3727 74be b926 6abe adeb 38bd
000000d0: 7ade 97be acc9 abbe ede0 5ebd 826e fd3d
000000e0: 060d 64bb 711d d4bd 7e08 88bc a121 48bd
000000f0: 7050 91bd 0da3 cfbc 7477 01be ce40 a73d
00000100: 50e0 46bc a5c4 0dbe 9f0a 643c 2d3d c63c
00000110: 8172 b43c 25cc 063d 4f17 803d 0787 333d
00000120: 6bae 3d3e 59ca 5d3d 05cf 3e3d 8be7 9fbc
00000130: a4b4 1c3e e0d6 043e 6f3b c4bd 9da2 7f3d
00000140: 79d5 093e 7f51 413e bb84 323e 1a34 22be
00000150: e4d6 783c 9243 023e 5b30 9d3d d762 f93a
00000160: 67dc 083e cd83 9abd d76c 14bc dcd4 ef3d
00000170: 1752 1e3e 0141 0f3b e194 2dbe ee16 57be
00000180: 6578 a4bd baea f73d d768 afbe 1768 93be
00000190: 051a cbbe c859 3ebe 4713 84bd 2932 f3be
000001a0: 0fb5 d3be 07c6 19bd 3bfd e6be e74e c6be
000001b0: 0928 0a3e 5cae 26be 1d7f a13d f7b0 e93c
000001c0: da36 54bd 86db 85be d706 303d addb c5bd
000001d0: b801 14bd ab4e 453d 9718 7dbe 0e1e 66be
000001e0: 4664 02ba b8f1 bbbd 60be 16be c0a3 063d
000001f0: 37cb d93c 6b57 01be 623a 883e c08f 14be
00000200: 3d50 85bd 0c17 18bd 3123 7a3d 23f0 9bbe
00000210: 8957 7a3d 1bde 24be 0fdc 2fbe ca05 2d3c
00000220: 90b6 ab3d 7dbf bdbd 5ead 0cbe 0d49 b63b
00000230: a0c1 0bbe ab61 45be 1910 2f3e b59d 19bc
00000240: de23 063d 791d d13d e92c d13d 3c3f 36be
00000250: 2d84 0a3e 1a47 3f3d 2729 24be a4f7 c5bc
00000260: dc7c 623b d245 dc3c 4092 12bd 5a04 18bc
00000270: 47c0 77bd 61f3 a3bc 3c2f bd3c 336d ddbd
00000280: 6a7a ef3d 65ab 603d f86c 1abb c57b 19bc
00000290: a01a 1c3e f9ed 02be 1b6c 8f3d acfc 4e3d
000002a0: 914e e9bd 2f36 e43d cdf3 0cbd 9e9a 16bb
000002b0: ee55 8fbd 1847 893d ff1b 30be 6574 103c
000002c0: 4306 973d 9017 1abe ef47 823d ef60 703b
000002d0: 68f3 aebc ef66 7bbd c438 493d f9cf 1fbd
000002e0: 9107 52bd e8bd bb3d be61 c8bd 9fa4 25bd
000002f0: 16c3 763c 5fdc 803b e610 bdbd 13e5 9dbd
00000300: b56b adbb 617f 08be 5048 78be 5069 da3c
00000310: 9f7c 26be 9d99 3ebe 226c e0bd b7d7 2f3c
00000320: 76bb b13d c31f fe3c f290 ee3d 0b69 be3d
00000330: 4c68 da3c 02dd bc3d 66cb 4dbd 7e6a f4bc
00000340: 2147 513d c45f aa3d d12b 2cbe c69c 323c
00000350: f81c 123e 681e 80bd 7c7e e33c 55e9 093e
00000360: fa26 13bd a9d0 8a3c 0841 e23c 4594 9bbd
00000370: 1366 81bd 5339 a7bc b337 cdbd 3852 17bc
00000380: 18e3 1d3e c3b5 b9bd b80c b8bc 81b5 9b3d
00000390: 25b5 9c3b 2113 913d c922 18bd 4774 de3c
000003a0: d6f1 dc3d aedf dabc 2cd0 3d3d cd39 a0bc
000003b0: 895c cf3d 2812 673d 3b42 1a3e 7bfe 0ebe
000003c0: fdfa a63d 4c8f 983d 1336 b2bd 0c51 7e3d
000003d0: d980 2abd ca70 c63d e44f 2a3e a9ad 1abd
000003e0: 0395 a5bd ff7f b53d 9de4 9bbe b0af 8bbe
000003f0: 9c39 8ebc 0a05 24bd e143 54bd 385e cd3d

conv2.bias f4 [32]
0.025848625 0.0740174 -0.045317832 0.008183011 -0.13262221 -0.08153408 -0.05142559 0.0056993985
-0.12348479 -0.0929826 0.055990685 -0.1371643 -0.10146761 -0.097544976 -0.104949884 0.1571074
-0.16674086 -0.09434153 -0.109883785 0.01832403 -0.016212905 -0.012083974 -0.1575278 -0.07312023
-0.0584284 -0.007939751 -0.16914506 -0.11493878 -0.052100327 -0.049549196 -0.1429025 0.0076998803
00000000: 7fc0 d33c 6f96 973d 319f 39bd 0912 063c
00000010: 1ece 07be 57fb a6bd a4a3 52bd 05c2 ba3b
00000020: 98e5 fcbd a96d bebd 7d56 653d cc74 0cbe
00000030: 40ce cfbd a9c5 c7bd f7ef d6bd c3e0 203e
00000040: 1ebe 2abe 2236 c1bd c00a e1bd 471c 963c
00000050: edd0 84bc dcfb 45bc f84e 21be 0fc0 95bd
00000060: 9e52 6fbd bb15 02bc 5d34 2dbe 0665 ebbd
00000070: 2767 55bd 19f4 4abd 0855 12be 474f fc3b

conv3.weight f4 [64, 32, 3, 3]
-0.13579795 -0.0031868285 0.20539115 -0.013706473 -0.040296398 0.031406403 -0.013498302 -0.026013818
-0.081198424 -0.02548331 -0.018294092 -0.19378227 0.14941476 -0.025708951 -0.01388004 0.061509967
-0.01273429 0.07217938 -0.019164458 -0.11215873 -0.4821693 0.165566 -0.11639173 -0.06202342
0.03953267 -0.051855225 0.19939049 -0.1172501 -0.0051578297 -0.039164852 0.035206318 -0.0016306039
0.025044108 -0.0058577755 0.017342057 -0.014895799 0.033356562 -0.009254591 0.017097207 -0.066477336
-0.03133373 -0.04227216 -0.02173964 0.04399043 0.011359707 -0.15873353 0.015902564 0.2052498
0.028159667 -0.05459169 -0.032168694 0.044656496 -0.13033047 -0.12226754 -0.049038623 -0.012818993
-0.06233342 0.022999115 -0.02006434 0.01885159 -0.043982793 -0.030345522 -0.04078683 0.056763433
-0.009257259 -0.08051483 -0.05719155 -0.15381628 -0.21647874 0.047818113 0.07043796 -0.15116297
0.005547344 -0.03502309 -0.0010780388 0.0077853673 0.005647037 -0.07852864 0.052989006 -0.030444758
-0.0530512 -0.1549126 -0.11313033 0.060858645 -0.029234529 -0.07337249 -0.1096519 0.034630265
0.030574214 -0.16971833 -0.059085093 -0.0872576 -0.085308045 0.07761047 0.020266172 0.08413485
0.13537775 0.002270303 0.055836007 -0.090592906 0.0070523694 0.09877297 0.06573884 -0.022227159
-0.049327996 -0.00986131 -0.035526257 -0.12395481 -0.16172352 0.08021661 0.034067973 0.060220588
0.0333068 -0.07389457 0.058595914 0.042705618 -0.036467582 -0.035481293 -0.044388033 -0.04940722
-0.021940496 0.050841782 0.040429477 0.022007223 -0.019974563 -0.051298264 0.06722091 0.021546043
-0.02703003 -0.05588846 0.017363949 -0.021594686 0.10810724 0.043523736 -0.06073664 0.0038281193
-0.11437112 -0.059445705 -0.08166101 0.041474137 -0.14020994 0.061768375 0.118328474 -0.14517847
0.15975052 -0.017997468 -0.18244855 0.07503223 0.02283114 0.073627554 -0.08141974 -0.024842052
-0.13896124 0.035548344 0.01205091 -0.14981021 0.033330232 0.086652845 0.14178798 -0.05339169
-0.02058354 0.042718478 -0.068075694 0.0030401682 0.035675548 -0.012771142 -0.05852142 -0.022863055
0.06867649 0.012201331 0.007881183 -0.08039461 -0.062058087 -0.08560162 0.021948842 0.048256684
-0.010532302 0.026849737 -0.0029521396 0.0028151711 0.121164 0.08541927 -0.044708014 -0.03330799
-0.0090667745 -0.0274482 0.07056301 0.06478747 -0.07235198 -0.060309775 -0.057989158 -0.0065424424
0.064590715 -0.012728879 0.0047678007 -0.028360052 -0.038979877 0.02025359 -0.026177598 0.009196369
-0.027371518 0.0023266054 0.008034103 -0.04122412 0.058031783 0.06850438 0.037338868 0.16806702
-0.05819953 -0.074974746 -0.034196693 -0.12890704 0.12150503 -0.20738034 -0.0030350941 -0.047087114
0.25817806 0.05843031 -0.20439793 0.0712135 -0.020142704 -0.17127202 -0.0687544 0.006215185
0.008553546 -0.06722076 -0.0021218408 -0.019976618 -0.07152897 -0.029368052 -0.049132995 0.012220088
-0.05833973 0.030343492 0.15543875 0.11743005 -0.07445983 -0.06183141 0.1317914 -0.15000033
-0.004763086 0.074630894 -0.18290205 -0.06362234 0.042111773 0.153465 0.043094 0.012881642
-0.26097772 0.069494866 -0.02061861 -0.14208162 -0.15197104 0.04166169 0.20235196 0.09331182
00000000: 9e0e 0bbe 1cda 50bb 0f52 523e 1d91 60bc
00000010: d60d 25bd 00a4 003d fb27 5dbc ee1a d5bc
00000020: 5c4b a6bd 60c2 d0bc 7edd 95bc dc6e 46be
00000030: 2f00 193e 949b d2bc 1b69 63bc e0f1 7b3d
00000040: 7ca3 50bc c8d2 933d c8fe 9cbc 7ab3 e5bd
00000050: e5de f6be 228a 293e ca5e eebd 450c 7ebd
00000060: 02ed 213d 2566 54bd 052d 4c3e d220 f0bd
00000070: 0303 a9bb 536b 20bd 8034 103d fdb9 d5ba
00000080: 4d29 cd3c 95f2 bfbb ee10 8e3c 820d 74bc
00000090: e4a0 083d 91a0 17bc 710f 8c3c 4525 88bd
000000a0: cc57 00bd 9325 2dbd 5417 b2bc 4f2f 343d
000000b0: 111e 3a3c 0b8b 22be 1846 823c 012d 523e
000000c0: 1aaf e63c 899b 5fbd 52c3 03bd bbe9 363d
000000d0: 5a75 05be 6767 fabd b9dc 48bd c106 52bc
000000e0: 5451 7fbd a468 bc3c f95d a4bc a66e 9a3c
000000f0: 4d27 34bd 2c97 f8bc 1710 27bd c680 683d
00000100: c2ab 17bc f6e4 a4bd b041 6abd 0482 1dbe
00000110: 9aac 5dbe eddc 433d c741 903d 77ca 1abe
00000120: 7fc6 b53b 5f74 0fbd fb4c 8dba 651c ff3b
00000130: c80a b93b a0d3 a0bd 000b 593d 4967 f9bc
00000140: 374c 59bd 69a1 1ebe e0b0 e7bd ea46 793d
00000150: 407d efbc 5144 96bd 2d91 e0bd 77d8 0d3d
00000160: c676 fa3c a4ca 2dbe 3603 72bd 1db4 b2bd
00000170: fcb5 aebd 3df2 9e3d 3e05 a63c e44e ac3d
00000180: 77a0 0a3e 5dc9 143b 4cb4 643d c688 b9bd
00000190: 9017 e73b 7c49 ca3d 16a2 863d bb15 b6bc
000001a0: 270c 4abd 5591 21bc fb83 11bd 05dc fdbd
000001b0: da9a 25be 9b48 a43d dc8a 0b3d dda9 763d
000001c0: b66c 083d 0956 97bd 4502 703d 16ec 2e3d
000001d0: 085f 15bd d554 11bd 3ad0 35bd 3a5f 4abd
000001e0: 8ebc b3bc 793f 503d 6199 253d 7e48 b43c
000001f0: b2a1 a3bc 211e 52bd 1eab 893d 5481 b03c
00000200: 156e ddbc 4ceb 64bd d73e 8e3c 57e7 b0bc
00000210: 5467 dd3d f245 323d fcc6 78bd 2fe1 7a3b
00000220: 683b eabd 577d 73bd e33d a7bd c9e0 293d
00000230: 3293 0fbe d600 7d3d 3356 f23d aaa9 14be
00000240: a495 233e 6d6f 93bc cbd3 3abe 7faa 993d
00000250: 5f08 bb3c 0bca 963d 65bf a6bd 8f81 cbbc
00000260: db4b 0ebe 249b 113d 2e71 453c d967 19be
00000270: 4885 083d 0c77 b13d de30 113e 3fb1 5abd
00000280: d09e a8bc 92f9 2e3d 456b 8bbd 8f3d 473b
00000290: 8620 123d 0d3e 51bc 28b4 6fbd 4d4b bbbc
000002a0: 42a6 8c3d 17e8 473c 1420 013c eea5 a4bd
000002b0: 9f30 7ebd e74f afbd 0fce b33c cda8 453d
000002c0: ad8f 2cbc fbf3 db3c af78 41bb bc7e 383b
000002d0: d524 f83d 4cf0 ae3d c01f 37bd f56d 08bd
000002e0: cf8c 14bc 0cdb e0bc 5783 903d 4baf 843d
000002f0: 462d 94bd 6207 77bd 0a86 6dbd fc61 d6bb
00000300: 2348 843d ca8c 50bc 363b 9c3b 5753 e8bc
00000310: 5da9 1fbd dbea a53c 6772 d6bc 5eac 163c
00000320: 3c3a e0bc f679 183b 78a1 033c 9fda 28bd
00000330: bcb2 6d3d 064c 8c3d a4f0 183d c319 2c3e
00000340: a162 6ebd 5c8c 99bd d511 0cbd 3500 04be
00000350: a1d7 f83d 835b 54be 6ee8 46bb 6bde 40bd
00000360: ea2f 843e 9f54 6f3d b14d 51be 62d8 913d
00000370: 5002 a5bc ef61 2fbe 1bcf 8cbd c0a8 cb3b
00000380: 2c24 0c3c 0aab 89bd 950e 0bbb 01a6 a3bc
00000390: c87d 92bd 4595 f0bc ae3f 49bd c436 483c
000003a0: a4f5 6ebd ea92 f83c 562b 1f3e 2b7f f03d
000003b0: 657e 98bd ef42 7dbd 53f4 063e b099 19be
000003c0: a913 9cbb 15d8 983d ad4a 3bbe 6e4c 82bd
000003d0: 657d 2c3d ee25 1d3e 5683 303d 860d 533c
000003e0: df9e 85be 5353 8e3d 5ce8 a8bc d87d 11be
000003f0: 4c9e 1bbe 73a5 2a3d 5a35 4f3e 441a bf3d

conv3.bias f4 [64]
-0.021786684 0.06355834 -0.09868931 0.059101377 -0.052176174 0.0076620155 0.009703729 0.03645251
-0.05109416 -0.033304527 0.015088994 0.038887516 -0.052463483 0.03934258 -0.06214725 0.021168062
0.03106547 0.029362964 -0.0021641157 -0.057732858 -0.09803429 -0.08901766 0.045635723 -0.015009666
-0.06625675 -0.035420734 0.041664317 -0.06471254 -0.026493628 0.012724767 -0.07689748 -0.006916742
0.055859376 -0.029892227 -0.059188653 0.034760714 0.054704268 -0.0026069374 -0.042702258 -0.02368233
0.064022005 -0.047228638 0.06369575 -0.118664846 -0.020748723 -0.056958247 -0.020632107 0.042243976
-0.0028396489 0.003565446 -0.019285932 0.033194423 0.05885028 -0.041376237 -0.09134675 -0.013738996
0.025423918 0.0017404025 0.053569864 0.05291 0.05858953 0.032788347 -0.007431438 0.02391093
00000000: fd79 b2bc e02a 823d 9f1d cabd 4914 723d
00000010: afb6 55bd a511 fb3b 64fc 1e3c 3a4f 153d
00000020: 1c48 51bd 546a 08bd d437 773c 8448 1f3d
00000030: f3e3 56bd af25 213d 1d8e 7ebd a568 ad3c
00000040: 037d fe3c 998a f03c d6d3 0dbb 4a79 6cbd
00000050: 34c6 c8bd e44e b6bd 86ec 3a3d 1aeb 75bc
00000060: 9eb1 87bd 5515 11bd 34a8 2a3d 0288 84bd
00000070: 2a09 d9bc 8b7b 503c 6d7c 9dbd d6a5 e2bb
00000080: cdcc 643d 8be0 f4bc cd6f 72bd 4061 0e3d
00000090: 9511 603d 27d9 2abb 90e8 2ebd 7201 c2bc
000000a0: f81d 833d d172 41bd eb72 823d 8e06 f3bd
000000b0: 3af9 a9bc 0d4d 69bd aa04 a9bc 0508 2d3d
000000c0: 6719 3abb 42aa 693b 88fd 9dbc e0f6 073d
000000d0: fe0c 713d 217a 29bd 0114 bbbd 8719 61bc
000000e0: d245 d03c 381e e43a 136c 5b3d 28b8 583d
000000f0: 93fb 6f3d 134d 063d 6c83 f3bb dbe0 c33c

fc1.weight f4 [120, 64]
0.13865694 -0.13917826 -0.042022124 -0.050025105 -0.10221584 -0.06896692 0.08837399 -0.06869956
0.07983576 0.13371286 -0.061370227 0.10176234 0.053450555 0.03334582 0.031543285 -0.00073399156
0.089572065 -0.022179406 -0.046591636 -0.031938925 0.05560529 -0.09351935 -0.11092354 -0.049739484
-0.06903092 0.031425077 -0.054832313 0.1416075 -0.0018439745 0.0080966875 -0.06799157 -0.16955353
-0.08149604 0.013920428 0.08618587 -0.034150343 -0.05404249 0.15696879 -0.048629187 -0.015475214
-0.030257234 0.13413182 0.17894532 0.13672595 0.115875654 -0.15144409 0.11047018 0.16563915
0.10268764 0.19968927 -0.012182339 0.11471383 0.102056324 -0.08188971 -0.013057632 -0.028166626
0.17752855 0.02540207 0.21331374 0.12264108 0.18541679 0.06521743 -0.051626686 -0.036327902
0.053509988 -0.00967402 0.056828666 0.100269824 -0.07733824 -0.008993429 -0.019208081 0.056667615
0.065001614 -0.14570774 0.026380038 0.005288212 0.124560505 -0.097156875 -0.16886373 -0.10492746
0.11411896 0.08513096 0.13114218 0.031548087 -0.05287888 0.0008791095 0.18422599 -0.12364742
0.01792301 -0.10174712 0.084284335 0.066404656 0.08511294 0.0591984 -0.040944252 0.20800266
0.07578952 -0.030136727 -0.016567545 -0.07746996 -0.122406095 0.07833324 0.07349199 0.09080566
-0.18181504 -0.22426401 -0.10662963 -0.09256258 -0.08883445 -0.083246194 0.15895958 -0.117874265
-0.0596358 0.04036761 -0.08409363 -0.019505175 -0.011728814 -0.11247936 -0.06131246 0.073938
-0.069138736 0.012667937 0.0950724 0.09075235 -0.12645546 0.06869353 0.25791043 -0.10732977
-0.2209242 -0.24801892 -0.06891004 -0.070819296 -0.14698091 0.09689525 -0.036954 -0.017845307
0.06625904 -0.041508418 -0.1217965 -0.19388321 -0.11171803 0.10726407 0.08396245 0.021493673
0.052693736 0.10624443 0.09540124 0.08258147 -0.08746962 0.03173089 0.04319865 -0.02943571
-0.053889047 0.10707915 0.057495266 -0.12479055 -0.1175117 -0.10135574 0.08068106 0.0763802
-0.119067796 -0.14415921 -0.1581251 -0.061392017 0.06817225 -0.10307091 -0.120815784 -0.055524323
-0.025443316 0.07196417 -0.09971189 0.006073964 -0.11541765 0.04124062 -0.16002192 -0.03079771
-0.060992133 -0.018029384 0.012363277 0.050034966 0.14080617 0.047211897 0.015896156 0.04688271
0.2171457 -0.117210664 -0.0019323601 -0.16948907 -0.18120179 -0.15839829 0.064522974 -0.062196866
-0.083498105 -0.027784241 0.045349706 0.12518765 0.055850893 0.029331625 -0.12312843 -0.054086387
0.03609297 -0.051877696 -0.104397014 0.008201052 -0.10672781 -0.07967162 -0.0080447 0.10421993
-0.08175248 0.09875041 0.01324562 -0.0039924383 0.0761801 -0.07763682 -0.08696195 0.10627377
-0.088930674 -0.019573763 -0.036727622 -0.032933924 -0.07121684 -0.098407194 0.03144993 -0.06949429
-0.121743634 -0.115822814 0.06713596 -0.06840047 -0.12030659 0.07164055 -0.013568805 -0.06965051
-0.11650704 0.01958364 0.016514173 0.115510285 0.014243629 -0.095588215 -0.041861013 0.05735042
0.03598533 -0.042540662 -0.09653124 0.06088346 0.021729484 -0.08995799 -0.053775355 0.051165134
-0.08689251 0.018286392 -0.053938374 -0.04084786 -0.05050919 0.021519274 -0.072878115 0.0013372418
00000000: 16fc 0d3e bf84 0ebe 641f 2cbd 20e7 4cbd
00000010: 8a56 d1bd 873e 8dbd 6cfd b43d 5bb2 8cbd
00000020: ee80 a33d 06ec 083e 595f 7bbd c668 d03d
00000030: f8ee 5a3d a095 083d 8833 013d 5769 40ba
00000040: 8f71 b73d 96b1 b5bc dfd6 3ebd 64d2 02bd
00000050: 5fc2 633d 1387 bfbd e22b e3bd a1bb 4bbd
00000060: 1560 8dbd 95b7 003d d997 60bd 8e01 113e
00000070: 84b1 f1ba f8a7 043c 2a3f 8bbd 719f 2dbe
00000080: 65e7 a6bd 8212 643c 3882 b03d 3be1 0bbd
00000090: a85b 5dbd 6dbc 203e 662f 47bd c18b 7dbc
000000a0: 05de f7bc da59 093e 713d 373e e301 0c3e
000000b0: 3750 ed3d 2914 1bbe 313e e23d 4f9d 293e
000000c0: e64d d23d 587b 4c3e 6f98 47bc 16ef ea3d
000000d0: e802 d13d cbb5 a7bd aeef 55bc b2bd e6bc
000000e0: 0bca 353e 0018 d03c eb6e 5a3e 3f2b fb3d
000000f0: e6dd 3d3e b790 853d 8176 53bd 91cc 14bd
00000100: 4a2d 5b3d c87f 1ebc 2dc5 683d 445a cd3d
00000110: 8363 9ebd 2d59 13bc 445a 9dbc 4d1c 683d
00000120: 911f 853d 6934 15be f31a d83c bd48 ad3b
00000130: 9419 ff3d 2ffa c6bd 9dea 2cbe 35e4 d6bd
00000140: 34b7 e93d 2459 ae3d 234a 063e 9138 013d
00000150: 8697 58bd 0a74 663a bda5 3c3e dc3a fdbd
00000160: 47d3 923c cb60 d0bd 449d ac3d 2aff 873d
00000170: b14f ae3d 057a 723d 29b5 27bd a6fe 543e
00000180: 8937 9b3d 4ce1 f6bc a9b8 87bc 92a8 9ebd
00000190: 0cb0 fabd 2d6d a03d f882 963d 51f8 b93d
000001a0: b92d 3abe 77a5 65be a360 dabd 7391 bdbd
000001b0: d6ee b5bd fb7c aabd 4dc6 223e 1068 f1bd
000001c0: ab44 74bd 8258 253d 4839 acbd 51c9 9fbc
000001d0: 362a 40bc 945b e6bd c622 7bbd ce6c 973d
000001e0: 9c98 8dbd 2e8d 4f3c 52b5 c23d 5edc b93d
000001f0: 8a7d 01be 32af 8c3d d60c 843e b6cf dbbd
00000200: f439 62be acf8 7dbe b520 8dbd b509 91bd
00000210: 2a82 16be 0471 c63d 145d 17bd 5230 92bc
00000220: d2b2 873d bb04 2abd 7270 f9bd 5289 46be
00000230: 6ccc e4bd 44ad db3d 81f4 ab3d 8013 b03c
00000240: 63d5 573d ae96 d93d ba61 c33d 7920 a93d
00000250: 4623 b3bd 40f8 013d 11f1 303d 2823 f1bc
00000260: c3ba 5cbd 504c db3d 2880 6b3d 3092 ffbd
00000270: f9a9 f0bd 9993 cfbd 1d3c a53d 396d 9c3d
00000280: d1d9 f3bd 799e 13be 8ceb 21be 3276 7bbd
00000290: e59d 8b3d d716 d3bd 446e f7bd 796d 63bd
000002a0: 806e d0bc f361 933d bf35 ccbd 1a08 c73b
000002b0: 1760 ecbd edeb 283d c9dc 23be 7b4b fcbc
000002c0: e3d2 79bd 5cb2 93bc 588f 4a3c 77f1 4c3d
000002d0: 7e2f 103e 4361 413d a838 823c 1608 403d
000002e0: 715b 5e3e 250c f0bd 3f47 fdba 8b8e 2dbe
000002f0: f68c 39be 2933 22be 9f24 843d 24c2 7ebd
00000300: 0e01 abbd c79b e3bc 9dc0 393d 3131 003e
00000310: e8c3 643d e048 f03c c22a fcbd b089 5dbd
00000320: 39d6 133d b57d 54bd 1ace d5bd b55d 063c
00000330: 1c94 dabd e02a a3bd ebcd 03bc 4271 d53d
00000340: d86d a7bd a83d ca3d 2804 593c 00d3 82bb
00000350: 5004 9c3d 0e00 9fbd 1b19 b2bd 10a6 d93d
00000360: 4921 b6bd 2859 a0bc b46f 16bd b9e5 06bd
00000370: 22da 91bd b689 c9bd a4d1 003d 0653 8ebd
00000380: ba54 f9bd 8334 edbd 947e 893d 8c15 8cbd
00000390: 4d63 f6bd 48b8 923d b14f 5ebc eda4 8ebd
000003a0: 3e9b eebd df6d a03c bb48 873c a890 ec3d
000003b0: 1c5e 693c c1c3 c3bd 7476 2bbd 46e8 6a3d
000003c0: 5a65 133d 1e3f 2ebd 2cb2 c5bd ef60 793d
000003d0: 0802 b23c e53b b8bd 8c43 5cbd 8892 513d
000003e0: b3f4 b1bd 58cd 953c 7cee 5cbd 1650 27bd
000003f0: b9e2 4ebd 3049 b03c 1f41 95bd 6446 af3a

fc1.bias f4 [120]
0.14364336 0.15078934 0.0111643905 -0.10831883 -0.035324883 -0.02162352 0.12991942 -0.12994249
0.080311455 -0.060773704 0.14148246 0.02514588 -0.051652584 -0.06911093 -0.12574354 0.03670813
-0.11455536 -0.017322013 0.11242353 -0.11010797 0.07124066 0.006327248 0.019384295 -0.06673434
-0.06617704 -0.06078225 0.17852871 0.21438202 0.046961118 0.037612002 -0.090639286 0.033583067
0.067130595 -0.07986088 0.042251308 0.007960781 0.07544915 0.09093142 -0.07744517 0.0033617886
-0.077452295 -0.014044412 0.06832364 0.0450826 0.12228132 0.06702927 0.2071976 -0.058313634
-0.09658035 -0.039132327 -0.13314365 -0.13288315 -0.14616118 -0.042395614 -0.022075785 0.098037854
0.0429311 0.0021386854 -0.055054277 0.16736333 -0.047739733 -0.05827964 -0.019575968 0.103995
0.024359696 0.08169985 0.17650416 -0.011644013 0.15132615 0.0047416664 -0.002117186 -0.004952601
0.079229675 0.12289741 0.0017802666 -0.013650266 0.0746506 0.051410645 0.046214648 -0.16445275
-0.109142266 0.049924273 0.039727222 -0.021945154 -0.057749104 -0.029413193 -0.017098079 0.071394704
-0.056653906 -0.12760197 0.16384842 0.18483229 0.07870538 0.02200042 -0.025871275 -0.0028403914
0.03061198 0.009117826 0.013752739 0.14600147 -0.13465376 -0.0027202338 0.19722033 -0.039861526
-0.05303449 0.07327701 -0.1297609 0.12920439 -0.071770556 0.11082827 0.08981545 -0.07635702
-0.0009521618 0.055645783 0.092686474 -0.1127592 0.028375424 0.11722847 0.009742404 0.014016346
00000000: 3f17 133e 8568 1a3e d9ea 363c 43d6 ddbd
00000010: d3b0 10bd cf23 b1bc 9909 053e a50f 05be
00000020: 557a a43d d9ed 78bd c7e0 103e bcfe cd3c
00000030: a991 53bd 088a 8dbd eac2 00be 445b 163d
00000040: 009c eabd e5e6 8dbc 4f3e e63d 4a80 e1bd
00000050: a0e6 913d ce54 cf3b d0cb 9e3c 03ac 88bd
00000060: d487 87bd cff6 78bd 3bd0 363e f686 5b3e
00000070: 4d5a 403d 0b0f 1a3d 17a1 b9bd 668e 093d
00000080: c47b 893d 1a8e a3bd b50f 2d3d f06d 023c
00000090: 1585 9a3d 413a ba3d 939b 9ebd 7451 5c3b
000000a0: 4f9f 9ebd 891a 66bc 44ed 8b3d 88a8 383d
000000b0: a16e fa3d a446 893d 9c2b 543e 47da 6ebd
000000c0: ebcb c5bd 3849 20bd cf56 08be 8512 08be
000000d0: 47ab 15be 06a7 2dbd 47d8 b4bc 12c8 c83d
000000e0: 85d8 2f3d 3029 0c3b 9880 61bd 4b61 2b3e
000000f0: bd8a 43bd a2b6 6ebd c85d a0bc 55fb d43d
00000100: fc8d c73c 4052 a73d 82bd 343e 88c6 3ebc
00000110: 3ef5 1a3e fb5f 9b3b 7dc0 0abb 6e49 a2bb
00000120: 2b43 a23d a3b1 fb3d d657 e93a 5ea5 5fbc
00000130: 6ae2 983d f893 523d 924b 3d3d 4d66 28be
00000140: fb85 dfbd 657d 4c3d 03b9 223d 53c6 b3bc
00000150: 538a 6cbd f0f3 f0bc 4511 8cbc 6337 923d
00000160: ed0d 68bd 17aa 02be e1c7 273e ad44 3d3e
00000170: 4930 a13d 3a3a b43c ffef d3bc dc25 3abb
00000180: fac5 fa3c ef62 153c 2b53 613c 6981 153e
00000190: ade2 09be f345 32bb 20f4 493e d745 23bd
000001a0: b23a 59bd 4212 963d 0be0 04be 284e 043e
000001b0: 71fc 92bd eff9 e23d 2af1 b73d 1261 9cbd
000001c0: 7f9a 79ba d5ec 633d 68d2 bd3d 4cee e6bd
000001d0: 9473 e83c 7b15 f03d 9b9e 1f3c d1a4 653c

fc2.weight f4 [84, 120]
0.05163717 0.05570376 -0.056361962 0.050823502 0.08899943 -0.018548783 0.17880374 0.07934667
0.039579365 0.0021852185 0.103494324 -0.3186734 0.038253807 -0.031352796 0.07752882 0.11579785
-0.013667822 0.043869298 -0.1896355 0.088693395 0.034925424 -0.0055278013 -0.052207824 -0.08098941
-0.045966793 0.017023148 0.0927104 0.11837531 -0.01517294 -0.071720675 -0.10554484 -0.010542963
0.028937588 -0.072846696 -0.19679992 -0.037109658 0.11595588 -0.043900583 -0.010164793 -0.068296075
-0.067408204 -0.1813995 0.089306995 -0.05967369 0.051337957 -0.1457864 0.0360226 0.12538876
0.095351055 0.1295555 -0.045352064 -0.10531152 -0.05466257 -0.07450557 -0.20283549 0.085152015
-0.14550844 0.06903584 -0.06710935 -0.07948186 -0.0695256 -0.20289584 -0.015367589 0.08799129
-0.06593176 0.15303089 -0.0051848567 0.119103685 -0.05809644 0.06244784 0.04524587 -0.018975453
0.15645829 -0.059161264 0.0015750388 0.15160726 0.113511965 0.06131007 -0.11167796 -0.026700128
0.014391984 0.05585872 0.09156612 -0.06171198 0.081209786 0.10255323 -0.011154893 0.066681944
0.082155965 0.079224735 0.12277057 0.075947575 0.067080274 0.100300506 -0.21174319 -0.049438033
-0.1387332 -0.018412977 0.1465024 0.07352975 -0.07798349 0.05145779 -0.006850483 -0.083783165
0.038144883 0.0077979336 -0.04536345 -0.05881584 -0.071838014 0.14985825 0.031423524 0.015469544
0.21029554 0.12949227 0.052305654 0.030992681 -0.21195549 -0.063698694 -0.24240088 0.1503138
-0.07712244 0.057061356 0.09973772 -0.011795667 -0.005232312 -0.0077276924 0.14713456 -0.11042745
0.07232235 0.10047893 0.0787041 -0.06620829 0.007121824 -0.009507183 -0.022063397 0.07130769
0.05219416 0.02522091 -0.049229145 -0.064861685 0.067961685 -0.02665778 -0.028295008 0.03510313
-0.04811613 -0.1474815 0.07920721 0.062330984 -0.109067366 0.1661767 0.02367988 0.020669011
-0.0908761 0.02934485 -0.20407723 0.008432339 0.03932373 0.024023367 0.056642268 -0.013835826
0.10466644 -0.10192054 0.14029352 -0.12697363 -0.02223709 -0.012647594 -0.0036940565 0.18927777
0.08184902 0.1377126 -0.06472644 0.12832761 0.02582842 -0.14117193 0.058255102 0.10164148
0.11353969 -0.039728172 -0.011549356 -0.041195188 0.065044194 -0.020485887 0.03119274 0.02888058
-0.076888464 -0.031189846 0.014532088 0.07111587 0.011432273 -0.00017814858 0.030972617 0.1409128
0.2595017 0.044415798 0.021700045 0.111358024 0.05013753 -0.054884966 -0.11651548 0.003016299
-0.09451741 -0.10742117 0.11261672 0.030149054 0.00941438 0.055588678 0.086265035 0.040551454
-0.08455164 -0.010645917 0.071155936 0.07554264 0.10791114 0.12747651 0.060367282 0.12028459
-0.034308806 -0.07003264 0.069753185 -0.049865976 -0.0871315 0.017735552 0.03645526 0.03716163
-0.052773114 0.036441755 -0.09365292 0.01988138 0.19451872 -0.0063485657 0.17593865 -0.035872746
-0.011139979 0.07921335 -0.0447051 0.026208539 -0.10645652 0.014785495 -0.11244642 -0.0008981917
-0.008570987 0.05131826 0.010102272 0.011526488 -0.07680731 0.020963393 -0.053571925 -0.054130297
-0.07125686 -0.07042137 0.04809711 -0.068760954 -0.02524401 0.09067269 0.037568554 0.036414977
00000000: 7f81 533d a029 643d cddb 66bd 4e2c 503d
00000010: 5545 b63d 9ef3 97bc 5418 373e 8280 a23d
00000020: f91d 223d e235 0f3b d5f4 d33d 2929 a3be
00000030: 06b0 1c3d ca6b 00bd 6ec7 9e3d 6c27 ed3d
00000040: 00ef 5fbc 4bb0 333d cf2f 42be e2a4 b53d
00000050: f60d 0f3d 8f22 b5bb dfd7 55bd c7dd a5bd
00000060: ad47 3cbd 2174 8b3c f3de bd3d c16e f23d
00000070: ec97 78bc 4ae2 92bd e527 d8bd 64bc 2cbc
00000080: 850e ed3c a630 95bd eb85 49be 4c00 18bd
00000090: 477a ed3d 19d1 33bd 3b8a 26bc d0de 8bbd
000000a0: 500d 8abd cac0 39be 96e6 b63d 666c 74bd
000000b0: c047 523d 0849 15be 6f8c 133d e965 003e
000000c0: 6a47 c33d 32aa 043e 16c3 39bd 91ad d7bd
000000d0: dce5 5fbd 6096 98bd 1bb4 4fbe 2e64 ae3d
000000e0: 2a00 15be aa62 8d3d a070 89bd 63c7 a2bd
000000f0: 7063 8ebd edc3 4fbe 57c8 7bbc c734 b43d
00000100: 3b07 87bd 21b4 1c3e bbe5 a9bb a2ec f33d
00000110: 88f6 6dbd 4ec9 7f3d bc53 393d 6972 9bbc
00000120: 9a36 203e 1553 72bd 8871 ce3a ef3e 1b3e
00000130: f678 e83d 4520 7b3d 6ab7 e4bd 3aba dabc
00000140: 5bcc 6b3c 1dcc 643d 0587 bb3d b3c5 7cbd
00000150: 5151 a63d 6e07 d23d 03c3 36bc 8b90 883d
00000160: 6341 a83d 9440 a23d 236f fb3d 678a 9b3d
00000170: 6261 893d 5a6a cd3d 35d3 58be 897f 4abd
00000180: 1310 0ebe d0d6 96bc ba04 163e c496 963d
00000190: cfb5 9fbd 67c5 523d 047a e0bb 8296 abbd
000001a0: cf3d 1c3d cf85 ff3b 06cf 39bd e1e8 70bd
000001b0: cf1f 93bd 7174 193e f4b5 003d f873 7d3c
000001c0: b757 573e 9f99 043e 743e 563d 5de4 fd3c
000001d0: dc0a 59be 7674 82bd f037 78be dceb 193e
000001e0: 5ff2 9dbd 2bb9 693d 4a43 cc3d 9d42 41bc
000001f0: d073 abbb 9538 fdbb 71aa 163e c927 e2bd
00000200: be1d 943d e6c7 cd3d 9d2f a13d 3698 87bd
00000210: 315e e93b 04c4 1bbc 4cbe b4bc c409 923d
00000220: 8bc9 553d 159c ce3c 80a4 49bd 34d6 84bd
00000230: 7f2f 8b3d 6b61 dabc efca e7bc 4dc8 0f3d
00000240: 6b15 45bd 6405 17be 6437 a23d c64e 7f3d
00000250: b65e dfbd 3a2a 2a3e 4ffc c13c 0f52 a93c
00000260: 401d babd 9c64 f03c 9ff9 50be cb27 0a3c
00000270: eb11 213d a7cc c43c b901 683d a9af 62bc
00000280: 5c5b d63d b7bb d0bd 1ba9 0f3e 6005 02be
00000290: 8f2a b6bc db37 4fbc fc17 72bb 08d2 413e
000002a0: 76a0 a73d 8804 0d3e 4c8f 84bd 5068 033e
000002b0: 1f96 d33c 608f 10be e79c 6e3d 6929 d03d
000002c0: 7f87 e83d 02ba 22bd 8339 3dbc 49bc 28bd
000002d0: e435 853d 05d2 a7bc eb87 ff3c f796 ec3c
000002e0: b377 9dbd d981 ffbc ff17 6e3c 32a5 913d
000002f0: 6e4e 3b3c 65cd 3ab9 49ba fd3c 724b 103e
00000300: 68dd 843e 57ed 353d 4bc4 b13c ad0f e43d
00000310: 035d 4d3d 0fcf 60bd ab9f eebd 1aad 453b
00000320: 5892 c1bd a1ff dbbd 98a3 e63d 26fb f63c
00000330: c63e 1a3c f4b0 633d b9ab b03d 4819 263d
00000340: 6929 adbd 366c 2ebc 34ba 913d 1ab6 9a3d
00000350: 8400 dd3d 3489 023e af43 773d c457 f63d
00000360: 6487 0cbd 466d 8fbd c2da 8e3d 4440 4cbd
00000370: 0072 b2bd 264a 913c 1c52 153d cb36 183d
00000380: 9f28 58bd f343 153d 1acd bfbd 47de a23c
00000390: ea2f 473e a107 d0bb 4329 343e 4def 12bd
000003a0: 7584 36bc 9c3a a23d b21c 37bd 4ab3 d63c
000003b0: e005 dabd dc3e 723c 4f4a e6bd a074 6bba
000003c0: 536d 0cbc 1933 523d 0084 253c 98d9 3c3c
000003d0: 274d 9dbd 6cbb ab3c 3c6e 5bbd bbb7 5dbd
000003e0: 1eef 91bd 1439 90bd 7a01 453d 8bd2 8cbd
000003f0: 87cc cebc 9ab2 b93d 7ce1 193d df27 153d

fc2.bias f4 [84]
0.08873391 -0.03308285 -0.053823426 -0.009574942 0.069544315 0.03777668 0.219484 0.029619493
-0.012481437 0.057701778 -0.03988734 0.017049184 -0.09644352 -0.07969618 0.13397089 0.04345621
0.1254144 -0.011670846 0.011716127 0.07136726 -0.06676253 0.113960594 0.034923732 0.06736388
0.043236874 0.18538404 0.023813386 -0.07492683 0.17719336 0.0073488713 -0.055335898 0.1690095
-0.04683187 -0.10837856 0.079216376 -0.0043004313 -0.11517413 -0.016079104 -0.0074509466 0.14538883
-0.07501659 0.038084287 0.09780498 0.09864721 0.007084415 0.016586607 -0.08156894 0.00476801
0.14398873 0.018261075 0.0026287772 -0.0025919261 0.024177613 0.014056123 -0.0523132 0.016216792
0.028044982 0.010663133 0.06471724 -0.08461521 0.04243223 0.11904963 0.16228856 0.042948224
0.17446707 0.034898315 0.120124444 -0.114711896 0.20702176 0.11155325 -0.11467489 -0.09731965
0.090933986 -0.028727781 0.105358824 0.07066058 -0.023164736 0.07405348 0.15287665 -0.041172206
-0.031041447 -0.00700462 -0.06653003 -0.046662245
00000000: 20ba b53d e281 07bd f475 5cbd 38e0 1cbc
00000010: 406d 8e3d b8bb 1a3d 6ac0 603e 94a4 f23c
00000020: f17e 4cbc b358 6c3d e860 23bd bbaa 8b3c
00000030: 2e84 c5bd c037 a3bd aa2f 093e 24ff 313d
00000040: a26c 003e 1337 3fbc 00f5 3f3c ff28 923d
00000050: cbba 88bd 2c64 e93d 300c 0f3d 13f6 893d
00000060: 2619 313d 50d5 3d3e 4a14 c33c 3d73 99bd
00000070: 2d72 353e cdce f03b e5a7 62bd d410 2d3e
00000080: c6d2 3fbd 94f5 ddbd 323c a23d a2ea 8cbb
00000090: 6ae0 ebbd 53b8 83bc 1227 f4bb cfe0 143e
000000a0: 4ca2 99bd 45fe 1b3d fa4d c83d 8c07 ca3d
000000b0: 6124 e83b a3e0 873c 9e0d a7bd f83c 9c3b
000000c0: c871 133e 4098 953c 9047 2c3b 4edd 29bb
000000d0: 2110 c63c a74b 663c 5e46 56bd 14d9 843c
000000e0: 97be e53c 6cb4 2e3c 798a 843d bd4a adbd
000000f0: 6bcd 2d3d 4bd0 f33d f92e 263e 7aea 2f3d
00000100: 7fa7 323e 89f1 0e3d ce03 f63d 12ee eabd
00000110: 83fd 533e 0876 e43d abda eabd 864f c7bd
00000120: 993b ba3d 8656 ebbc 5ec6 d73d 7fb6 903d
00000130: f9c3 bdbc 5aa9 973d b28b 1c3e 30a4 28bd
00000140: a24a febc 0387 e5bb e540 88bd e920 3fbd

fc3.weight f4 [10, 84]
-0.30847508 -0.1063987 -0.011716149 -0.41071656 -0.013499492 0.09599771 0.13974454 -0.16987143
0.0053636404 -0.20019089 -0.10793624 0.03594275 -0.2623317 -0.048973937 0.038569782 0.01887489
0.058889642 -0.17194402 -0.14242518 0.08111004 -0.10510706 0.17463945 -0.057278868 0.20799214
-0.200723 0.16211946 -0.3030783 0.049515575 0.1599271 0.13943088 -0.0009963266 0.14133517
-0.28958955 -0.0016632038 -0.014270275 -0.07147618 -0.18655385 -0.055530593 0.10987461 0.16791347
0.02778624 -0.112548396 0.08344509 -0.23976064 0.023691172 -0.14747 -0.21056642 -0.20011845
-9.16158e-05 -0.110139236 -0.07908923 0.16748416 0.023104988 -0.24946943 -0.044107217 -0.15769476
0.11004915 -0.0068661063 -0.107834816 0.0017577037 -0.009497241 -0.15184218 0.07005273 0.00658042
-0.16473146 0.0746626 0.15506992 0.07050814 0.20629805 -0.33014333 0.05321268 -0.14942919
0.022387689 0.038994495 -0.12271404 -0.19918586 -0.43391818 -0.084526315 -0.043895733 0.09160081
0.070573784 -0.09055816 0.052628677 -0.09669639 -0.23708555 0.0010681754 -0.066931054 0.16026643
-0.11682656 0.11586298 0.042725906 -0.10212411 0.11171106 -0.04243247 -0.26487783 -0.14550664
0.06844638 -0.08745316 -0.15335952 -0.1277003 -0.17349178 -0.14724295 0.14434215 0.10133882
-0.006263805 0.15133949 -0.032474205 -0.21762405 -0.23022999 -0.23298146 0.11457559 -0.11571948
-0.033453465 -0.34540066 -0.0594486 0.04610514 0.14682601 0.08471145 0.09802845 0.025881944
0.19272886 -0.06432372 0.17801176 0.10841336 0.043529816 0.07419558 -0.091961354 -0.0392448
0.109427124 -0.06254435 0.18400228 0.007067586 -0.14956649 -0.067871645 -0.04989208 -0.1138735
0.03979462 0.16160126 0.1438245 -0.19212262 -0.14812922 -0.06344486 0.046732053 -0.018618524
0.15195179 0.08462423 -0.07366578 0.20632799 -0.235014 -0.24289696 0.06492034 0.0048686806
0.055374533 0.09428982 -0.07043816 -0.1282794 -0.16600722 -0.009845208 -0.11181616 0.06258581
0.20229411 -0.007544795 0.14991572 0.045844365 0.053045005 -0.22498392 0.019725744 0.015505977
0.10779177 0.083838895 -0.12309981 -0.09465405 0.12698774 -0.15207487 0.044158276 0.08944719
0.0073747304 0.10505324 -0.0438848 -0.06134624 -0.033365875 -0.003966813 -0.024186593 0.15538497
0.019774474 0.059041835 0.15908156 -0.03268532 0.044420578 0.15126893 -0.045980453 0.064373195
0.13198513 0.15023398 0.13214688 0.05815441 0.058990974 -0.38107994 -0.03130631 0.019342437
0.006859853 -0.14675498 -0.11541714 -0.081141256 0.12679596 0.04210925 0.122520454 0.008551084
0.014137281 0.08734885 -0.09786749 0.07115011 0.02879379 -0.13288452 -0.10981224 -0.056967326
0.017173974 -0.06680911 0.11635994 -0.18551885 -0.08580239 -0.21513622 -0.2366897 0.10714594
0.108082 0.070006005 -0.037893392 -0.00944126 -0.08067984 -0.34172186 -0.027948398 0.18885434
0.056079928 -0.11660887 0.12453352 0.07804047 -0.17928825 0.053139742 -0.049850196 0.039221667
-0.2459409 -0.054153785 0.24857661 0.07901758 -0.17955025 0.08783762 -0.1761738 0.0015740488
0.075369194 -0.07298674 0.04957256 -0.0072450014 0.05860978 -0.093918696 -0.09805607 -0.002878032
00000000: 72f0 9dbe 90e7 d9bd 17f5 3fbc 7149 d2be
00000010: f92c 5dbc 739a c43d 3119 0f3e c7f2 2dbe
00000020: 7ac1 af3b d7fe 4cbe ad0d ddbd b438 133d
00000030: 5750 86be e598 48bd 59fb 1d3d 839f 9a3c
00000040: 4436 713d 1812 30be e8d7 11be 051d a63d
00000050: 5f42 d7bd afd4 323e 3f9d 6abd e4fb 543e
00000060: 558a 4dbe a502 263e 142d 9bbe d8d0 4a3d
00000070: eec3 233e f8c6 0e3e 2c97 82ba 2bba 103e
00000080: 1545 94be dcff d9ba dfcd 69bc 1a62 92bd
00000090: f907 3fbe 0c74 63bd f105 e13d 82f1 2b3e
000000a0: f89f e33c c67f e6bd 42e5 aa3d d083 75be
000000b0: fd13 c23c 6002 17be b99e 57be daeb 4cbe
000000c0: dc21 c0b8 ae90 e1bd 89f9 a1bd f880 2b3e
000000d0: ac46 bd3c ea74 7fbe c5a9 34bd bc7a 21be
000000e0: 7361 e13d 13fd e0bb 80d8 dcbd c062 e63a
000000f0: 519a 1bbc 847c 1bbe ce77 8f3d 90a0 d73b
00000100: 5daf 28be b5e8 983d a6ca 1e3e 9266 903d
00000110: cc3f 533e 8c08 a9be 8af5 593d f703 19be
00000120: 6366 b73c b1b8 1f3d 8051 fbbd 61f7 4bbe
00000130: 862a debe 221c adbd 03cc 33bd 3599 bb3d
00000140: fd88 903d 8e76 b9bd 2b91 573d c208 c6bd
00000150: 8ec6 72be 0502 8c3a 2613 89bd e21c 243e
00000160: c342 efbd 9249 ed3d 5c01 2f3d 7226 d1bd
00000170: c5c8 e43d abcd 2dbd 119e 87be b1ff 14be
00000180: 9e2d 8c3d a41a b3bd 470a 1dbe dec3 02be
00000190: d4a7 31be dbc6 16be 6ece 133e ba8a cf3d
000001a0: 9b40 cdbb bdf8 1a3e ac03 05bd d7d8 5ebe
000001b0: 69c1 6bbe b192 6ebe 9ba6 ea3d 56fe ecbd
000001c0: 8006 09bd 5bd8 b0be 6080 73bd bed8 3c3d
000001d0: 8f59 163e 327d ad3d 24c3 c83d 5f06 d43c
000001e0: b75a 453e 28bc 83bd b748 363e d307 de3d
000001f0: 524c 323d daf3 973d 3c56 bcbd 28bf 20bd
00000200: 541b e03d 4117 80bd 186b 3c3e 3597 e73b
00000210: f527 19be 4a00 8bbd a35b 4cbd 8236 e9bd
00000220: afff 223d cd7a 253e bb46 133e cbbb 44be
00000230: 30af 17be 61ef 81bd 1c6a 3f3d e085 98bc
00000240: 4099 1b3e 784f ad3d 16de 96bd a547 533e
00000250: 83a7 70be fbb9 78be f5f4 843d 7489 9f3b
00000260: 68d0 623d 051b c13d e241 90bd ad5b 03be
00000270: ccfd 29be cc4d 21bc dfff e4bd fd2c 803d
00000280: 3026 4f3e 543a f7bb 8283 193e 4dc7 3b3d
00000290: b845 593d 2f62 66be e297 a13c c80c 7e3c
000002a0: eec1 dc3d bab3 ab3d c11b fcbd fcd9 c1bd
000002b0: 1309 023e 84b9 1bbe 4fdf 343d 1730 b73d
000002c0: b9a7 f13b 2726 d73d 8cc0 33bd 3246 7bbd
000002d0: a8aa 08bd 0afc 81bb f622 c6bc 3d1d 1f3e
000002e0: 14fe a13c dad5 713d 47e6 223e 0be1 05bd
000002f0: 5af2 353d 3ee6 1a3e 0056 3cbd 18d6 833d
00000300: 1c27 073e f0d6 193e 8351 073e 5233 6e3d
00000310: 85a0 713d e91c c3be 0c3b 00bd 0874 9e3c
00000320: 9ec8 e03b f046 16be d25f ecbd 632d a6bd
00000330: cdd6 013e c07a 2c3d 01ec fa3d d919 0c3c
00000340: 0ea0 673c f4e3 b23d c06e c8bd 26b7 913d
00000350: f4e0 eb3c e112 08be 3de5 e0bd 9256 69bd
00000360: 6fb0 8c3c 37d3 88bd 1f4e ee3d a7f8 3dbe
00000370: 2ab9 afbd ab4c 5cbe c95e 72be 556f db3d
00000380: 185a dd3d 4f5f 8f3d 1a36 1bbd 84af 1abc
00000390: 793b a5bd 2bf6 aebe 0af4 e4bc 0863 413e
000003a0: 11b4 653d a2d0 eebd 6e0b ff3d afd3 9f3d
000003b0: 5797 37be 0fa9 593d b82f 4cbd e6a6 203d
000003c0: eed7 7bbe 5cd0 5dbd de8a 7e3e f8d3 a13d
000003d0: 05dc 37be 36e4 b33d e866 34be 5050 ce3a
000003e0: 2a5b 9a3d 127a 95bd 990c 4b3d 7a67 edbb
000003f0: cf10 703d 7258 c0bd 9fd1 c8bd 5d9d 3cbb

fc3.bias f4 [10]
0.16471317 -0.07076262 -0.012994389 -0.023430558 -0.09033427 0.027563307 -0.05625021 -0.1319191
0.08383459 0.036743984
00000000: 92aa 283e feeb 90bd 6be6 54bc 71f1 bfbc
00000010: 2c01 b9bd 72cc e13c 9f66 66bd cd15 07be
00000020: 78b1 ab3d dc80 163d
