Multimodal Biomedical Imaging Final Project/model1.pth (torch, 973253 bytes, 8 tensors)

fc1.weight f4 [256, 784]
0.0070177093 0.012872502 0.008834232 0.03562591 -0.03398664 -0.0190639 -0.023487147 0.01827164
-0.005318314 -0.013697829 -0.020940408 -0.013824161 -0.04777839 -0.05120768 -0.05692067 -0.042619456
0.0021535344 0.00023716316 -0.0078067016 -0.009496344 -0.0047702584 0.02892318 -0.021764394 -0.026902894
-0.03154748 -0.0033515096 -0.015882395 0.024788901 0.029207002 0.003963448 -0.019910567 0.024312843
0.014363167 -0.0026382662 -0.048027273 -0.009430219 -0.0028608302 0.0044079414 -0.03075672 -0.0670951
-0.05614559 -0.030938921 0.053895835 -0.13709377 -0.06361041 -0.086436346 -0.04637316 -0.07420286
-0.08703578 -0.0677025 -0.017746057 -0.02360997 0.009416103 -0.019712938 0.021892864 -0.006930474
-0.025909275 -0.02245446 -0.0151261585 -0.14193834 -0.07576312 0.024366075 -0.012591971 -0.071511805
-0.036559675 -0.04527233 -0.10525518 -0.10582489 -0.052551784 -0.05492513 0.013089468 0.00086692197
-0.067454815 0.049821783 0.11168343 0.075205095 0.0050107418 0.04540108 0.028969357 -0.040432453
-0.057874776 -0.031694677 0.034096714 -0.0010769702 0.012648024 -0.00023853034 -0.045335744 -0.09924211
-0.09645837 -0.038659222 -0.09032611 -0.053037517 -0.074286535 -0.12121209 -0.14264506 -0.13454859
-0.24914028 -0.19019781 -0.03571874 -0.036739565 0.048699852 -0.036054417 -0.09086752 -0.14729956
-0.056929514 0.03828076 0.072087124 0.14585266 -0.018108975 -0.16705953 -0.12910315 0.029538121
-0.005041698 -0.019704508 -0.06255306 -0.057728864 0.004082815 -0.059331577 -0.06650424 -0.04300005
-0.069876805 -0.09032502 -0.06325331 -0.06245937 -0.12179571 -0.10083252 -0.020767828 0.061454166
0.05852908 0.1291527 0.05793897 -0.015650222 -0.007765575 0.07584649 0.06687479 0.07693862
0.122507535 -0.107346214 -0.17540751 0.034930047 0.0014233515 0.01273324 -0.0016947354 -0.04718331
-0.090104505 -0.1562875 -0.15621874 -0.094505124 -0.0031806272 -0.009408612 0.0056322613 0.038404144
0.07451701 0.0062586013 -0.0005307379 0.02855602 -0.0055424706 0.044789724 0.0041182204 0.026923044
0.009068229 0.027800845 -0.0043149814 -0.04062727 0.04627646 0.06442004 -0.04064648 0.058639064
0.0024641417 -0.033453662 0.02761828 -0.10469605 0.014098965 -0.09082418 -0.14034063 -0.13225761
-0.03210992 -0.03144408 -0.054444343 0.04752856 0.02663818 -0.06277846 -0.03499332 -0.022202503
-0.018593095 0.04984506 0.007132441 0.047086153 -0.04883272 0.012701349 0.019731646 -0.021429403
-0.07587481 -0.05960716 0.020689614 0.03323031 -0.016250702 -0.14645407 0.0085766595 -0.017711043
0.013662011 -0.05801338 -0.07157478 -0.12972622 -0.015793506 -0.0023109778 -0.015220703 -0.06101462
-0.07260987 -0.012617454 -0.08006743 -0.022382235 0.051115565 0.11144766 0.058791284 0.031968027
-0.0044559157 0.069247514 0.03438672 0.02812793 0.009764978 -0.09960094 0.0147953015 0.062639825
-0.036643796 -0.032373853 0.10618545 0.12883 -0.0005183906 -0.014883507 -0.008591567 0.008948861
0.036045853 0.05765289 0.011814277 -0.032889515 -0.103659794 -0.055687696 0.017014503 0.00015328114
0.017562864 -0.06322344 -0.07673561 -0.046635162 -0.07197776 -0.03565229 -0.11730281 -0.03974935
-0.018358577 -0.083196364 0.03535814 -0.06308764 0.024293527 -0.049097363 0.0009978648 0.06104971
00000000: d0f4 e53b 30e7 523c 74bd 103c 79ec 113d
00000010: 9335 0bbd e52b 9cbc 1e68 c0bc 68ae 953c
00000020: 4045 aebb dc6c 60bc 388b abbc bc7e 62bc
00000030: 46b3 43bd 25bf 51bd a625 69bd bd91 2ebd
00000040: 5022 0d3b 00af 7839 5ccf ffbb 8e96 1bbc
00000050: d44f 9cbb 4ef0 ec3c 3e4b b2bc 7563 dcbc
00000060: ee37 01bd 00a5 5bbb cc1b 82bc 1812 cb3c
00000070: 8643 ef3c d0df 813b 7c1b a3bc ba2b c73c
00000080: 7d53 6b3c c3e6 2cbb 3fb8 44bd 3581 1abc
00000090: c47c 3bbb 7e70 903b 84f5 fbbc 2869 89bd
000000a0: ebf8 65bd 9f73 fdbc e1c1 5c3d 4f62 0cbe
000000b0: 2d46 82bd 8a05 b1bd c8f1 3dbd abf7 97bd
000000c0: d13f b2bd 9ca7 8abd 2e60 91bc b269 c1bc
000000d0: 0046 1a3c 077d a1bc aa58 b33c 0819 e3bb
000000e0: b03f d4bc 6af2 b7bc b5d3 77bc 4958 11be
000000f0: b229 9bbd 5d9b c73c 8e4e 4ebc c874 92bd
00000100: 99bf 15bd 7b6f 39bd 0790 d7bd b8ba d8bd
00000110: 8a40 57bd 2cf9 60bd 3575 563c 2642 633a
00000120: c025 8abd ed11 4c3d 48ba e43d 2105 9a3d
00000130: 2631 a43b 7cf6 393d 2551 ed3c 809c 25bd
00000140: 1a0e 6dbd 47d2 01bd ffa8 0b3d 2029 8dba
00000150: a839 4f3c 001e 7ab9 f9b1 39bd 733f cbbd
00000160: f78b c5bd 2259 1ebd e5fc b8bd de3d 59bd
00000170: 8a23 98bd 0b3e f8bd 8c11 12be 1bc7 09be
00000180: a11e 7fbe 37c3 42be d04d 12bd 3a7c 16bd
00000190: 7f79 473d ccad 13bd c018 babd b2d5 16be
000001a0: ec2e 69bd 49cc 1c3d 6aa2 933d 665a 153e
000001b0: 4659 94bc a711 2bbe 9e33 04be eef9 f13c
000001c0: d434 a5bb 596b a1bc d21b 80bd 1a75 6cbd
000001d0: 22c9 853b ab05 73bd 6033 88bd d220 30bd
000001e0: 921b 8fbd 53fc b8bd f48a 81bd 65d5 7fbd
000001f0: 0770 f9bd 4881 cebd 4b21 aabc 5db7 7b3d
00000200: 30bc 6f3d 9b40 043e 6a51 6d3d e534 80bc
00000210: 5d76 febb 6855 9b3d a6f5 883d ff91 9d3d
00000220: 3be5 fa3d 55d8 dbbd 079e 33be cf12 0f3d
00000230: c08f ba3a 149f 503c e221 deba 4943 41bd
00000240: b688 b8bd d509 20be cef7 1fbe e78b c1bd
00000250: 1272 50bb 9426 1abc d58e b83b aa4d 1d3d
00000260: 609c 983d f414 cd3b 3821 0bba 51ee e93c
00000270: 9d9d b5bb 6e75 373d 23f2 863b b78d dc3c
00000280: e992 143c 99be e33c b064 8dbb c868 26bd
00000290: 638c 3d3d a7ee 833d ec7c 26bd 842f 703d
000002a0: 707d 213b b506 09bd bb3f e23c e26a d6bd
000002b0: 58ff 663c 0702 babd 74b5 0fbe 8a6e 07be
000002c0: b185 03bd 82cb 00bd 0801 5fbd 4fad 423d
000002d0: 5038 da3c fe91 80bd 2855 0fbd 06e2 b5bc
000002e0: 8c50 98bc 552a 4c3d 40b7 e93b 69dd 403d
000002f0: d104 48bd 5219 503c 43a4 a13c b78c afbc
00000300: 4164 9bbd a326 74bd 447d a93c 811c 083d
00000310: 3120 85bc 0ef8 15be 1e85 0c3c c016 91bc
00000320: a1d6 5f3c 709f 6dbd cc95 92bd f3d6 04be
00000330: 6261 81bc c673 17bb 4160 79bc 77ea 79bd
00000340: 7cb4 94bd 70b9 4ebc 65fa a3bd f35a b7bc
00000350: 8e5e 513d ac3e e43d 21cf 703d e8f0 023d
00000360: ee02 92bb a4d1 8d3d 17d9 0c3d 8b6c e63c
00000370: 49fd 1f3c 94fb cbbd fe67 723c 4f49 803d
00000380: ce17 16bd 729a 04bd c277 d93d 03ec 033e
00000390: 9be4 07ba f4d9 73bc a5c3 0cbc 3e9e 123c
000003a0: d1a4 133d 7025 6c3d ab90 413c 28b7 06bd
000003b0: 964b d4bd c818 64bd 0062 8b3c 18ba 2039
000003c0: ffdf 8f3c 4a7b 81bd 8f27 9dbd 8304 3fbd
000003d0: 1369 93bd 2308 12bd 753c f0bd 37d0 22bd
000003e0: ba64 96bc db62 aabd b2d3 103d 1834 81bd
000003f0: 3803 c73c 511a 49bd c9ca 823a 430f 7a3d

fc1.bias f4 [256]
0.041783422 0.049465783 0.042234227 -0.005037097 0.046811454 -0.06992284 0.027650323 -0.008550845
-0.15417211 0.039336473 -0.03709494 0.036015365 -0.030231526 0.05302733 0.03548712 -0.026468864
-0.09599145 0.006451985 0.07606112 0.11230078 0.03231396 0.08321106 -0.070904106 -0.062843725
0.14919743 0.059500486 0.005089407 -0.038314342 0.047578104 0.007353731 -0.09401458 0.06794021
0.009701775 -0.017564012 -0.011974439 0.039317425 0.028835464 -0.03387759 0.019845912 -0.022593033
-0.0053903568 0.037845053 0.0009067995 -0.055002756 0.06254184 0.011053833 -0.0009427665 0.02029304
0.001558644 0.20704645 -0.0020572126 0.050022017 0.15401648 0.035030033 0.08471721 0.017991157
-0.006002566 0.0417994 -0.002034592 0.032414865 -0.051430248 -0.070623815 0.0665846 -0.013539749
0.005368765 0.0002845698 0.030797446 -0.08502462 0.08407049 0.062376887 0.016171653 0.03308378
0.10922574 -0.04565399 -0.009197269 0.012325449 -0.0019820314 0.008297621 -0.0084631005 0.04598054
0.09735222 0.086149104 -0.03688201 -0.025134915 0.12888707 -0.040160872 0.11834193 0.03576298
-0.0134109575 -0.033572547 0.022209251 0.042888362 -0.06186259 0.03891535 0.111617275 -0.05489147
-0.042646457 0.038415924 0.09973637 0.116041996 -0.0070126983 0.023929926 -0.037768472 0.08343715
-0.035179757 -0.026532756 0.13356301 -0.0042287405 0.11467731 -0.047745835 0.049711887 -0.0345626
-0.014215722 0.034800276 0.049311347 -0.06160437 0.082039766 -0.07011206 0.013804392 -0.016022922
0.045142114 0.0037113058 -0.0104683405 0.085940674 0.02558708 0.026038721 0.06008846 -0.08118941
-0.014909872 -0.060116522 0.046834424 0.08129126 0.061431747 -0.07190619 0.037585042 0.08820309
0.025763512 0.055110466 0.06557474 0.10882746 -0.070452526 -0.05729898 -0.016880257 -0.08192112
0.022102155 -0.027411249 -0.03704939 0.049617313 0.01184434 -0.017679494 0.018900298 0.023220751
-0.050480884 0.07469403 0.002921221 0.09249738 -0.06704254 0.14160089 -0.04302154 0.0076941974
-0.019655308 -0.033316292 -0.05171709 0.045940083 -0.0413872 0.09186668 0.064748764 0.049180496
-0.05295847 0.03155063 0.057412833 0.12928341 0.030114237 -0.022598885 -0.018867197 0.03902572
0.040905453 -0.032000296 -0.026801202 -0.024206378 0.0187601 0.023391351 0.020278402 -0.018241234
0.03360628 0.044517945 0.12699667 0.14024623 -0.043578327 -0.036176518 -0.021816215 0.08145223
-0.025623078 -0.026773123 0.007767208 -0.059829928 0.12781933 0.039327886 -0.041347302 0.053947527
0.04835296 -0.071105726 0.017226178 -0.09117001 0.1253739 0.005850157 0.04214416 0.016899563
-0.019001964 -0.0039414223 0.017938515 0.07852447 0.097849436 0.042737663 0.013226425 -0.07197828
0.029401598 -0.036307648 -0.0021922155 -0.036950298 -0.029066345 0.03637592 -0.059216265 -0.065251395
-0.023713948 -0.0119766975 0.01671625 0.004955772 0.07101514 -0.014674605 -0.03458355 -0.09809802
0.13767618 0.052746546 -0.019422486 0.05663129 0.03771394 -0.07458996 0.07050071 -0.016927965
0.07432589 -0.0029088135 0.011842793 0.045537807 -0.009676274 -0.0722694 0.030000018 0.00016834552
-0.018212957 -0.05899782 0.018096492 -0.019046169 -0.04624665 0.0075509376 0.068801455 0.009983314
00000000: 1825 2b3d a29c 4a3d ccfd 2c3d 3b0e a5bb
00000010: 5ebd 3f3d b533 8fbd ee82 e23c d818 0cbc
00000020: 4bdf 1dbe 481f 213d ddf0 17bd d984 133d
00000030: 1ba8 f7bc 3033 593d f15a 113d 3bd5 d8bc
00000040: 2a97 c4bd 2c6b d33b efc5 9b3d f4fd e53d
00000050: a55b 043d 8f6a aa3d 2c36 91bd 36b4 80bd
00000060: 36c7 183e c8b6 733d 0ac5 a63b 80ef 1cbd
00000070: 42e1 423d 91f7 f03b b78a c0bd 3d24 8b3d
00000080: 32f4 1e3c 67e2 8fbc 7030 44bc 4f0b 213d
00000090: 5a38 ec3c 3ac3 0abd e593 a23c 0615 b9bc
000000a0: 97a1 b0bb 6a03 1b3d 49b6 6d3a 924a 61bd
000000b0: f015 803d 231b 353c fd23 77ba 973d a63c
000000c0: 6a4b cc3a fc03 543e 4dd2 06bb e3e3 4c3d
000000d0: 7fb6 1d3e a77b 0f3d 3780 ad3d 3162 933c
000000e0: 2cb1 c4bb d935 2b3d ca56 05bb 73c5 043d
000000f0: 86a8 52bd 38a3 90bd 825d 883d d3d5 5dbc
00000100: 77ec af3b 5032 9539 ed4a fc3c 6321 aebd
00000110: 262d ac3d e87e 7f3d 6a7a 843c dc82 073d
00000120: bfb1 df3d aeff 3abd 24b0 16bc aef0 493c
00000130: f8e4 01bb bff2 073c d1a8 0abc 1756 3c3d
00000140: 9a60 c73d f16e b03d 9711 17bd bde7 cdbc
00000150: f9fa 033e ba7f 24bd 415d f23d 347c 123d
00000160: a2b9 5bbc 5e83 09bd 2df0 b53c b5ab 2f3d
00000170: a163 7dbd b465 1f3d 9997 e43d e1d5 60bd
00000180: 0dae 2ebd 045a 1d3d 9542 cc3d 6da7 ed3d
00000190: c7ca e5bb b108 c43c 1db3 1abd 19e1 aa3d
000001a0: a618 10bd 395b d9bc bec4 083e 3f91 8abb
000001b0: f0db ea3d 2391 43bd b19e 4b3d 8391 0dbd
000001c0: 0fe9 68bc bc8a 0e3d b2fa 493d dd54 7cbd
000001d0: 7704 a83d e996 8fbd d12b 623c 8142 83bc
000001e0: f0e6 383d 6139 733b 6783 2bbc aa01 b03d
000001f0: ff9b d13c 284f d53c 511f 763d a246 a6bd
00000200: 8948 74bc be3c 76bd 74d5 3f3d 087c a63d
00000210: db9f 7b3d 8d43 93bd c6f2 193d d2a3 b43d
00000220: 000e d33c 83bb 613d 0d4c 863d eee0 de3d
00000230: 6a49 90bd 56b2 6abd 7748 8abc 43c6 a7bd
00000240: 940f b53c 8e8d e0bc 1ac1 17bd 863b 4b3d
00000250: c30e 423c 96d4 90bc ccd4 9a3c 7239 be3c
00000260: 0bc5 4ebd 2ff9 983d f571 3f3b 446f bd3d
00000270: 994d 89bd d3ff 103e 5b37 30bd 9b1f fc3b
00000280: 2b04 a1bc aa76 08bd 4dd5 53bd ab2b 3c3d
00000290: a085 29bd 9924 bc3d 009b 843d 7d71 493d
000002a0: fbea 58bd 3c3b 013d b829 6b3d df62 043e
000002b0: 22b2 f63c 4c21 b9bc 618f 9abc 6fd9 1f3d
000002c0: 7a8c 273d be12 03bd 328e dbbc 744c c6bc
000002d0: c8ae 993c 389f bf3c e41e a63c a46e 95bc
000002e0: bda6 093d 7358 363d 6a0b 023e b59c 0f3e
000002f0: 307f 32bd d42d 14bd ebb7 b2bc 6dd0 a63d
00000300: 7de7 d1bc 4f53 dbbc 1084 fe3b 3a10 75bd
00000310: 12e3 023e 4716 213d ca5b 29bd 15f8 5c3d
00000320: c10d 463d e19f 91bd ea1d 8d3c 58b7 babd
00000330: 0462 003e acb2 bf3b 5b9f 2c3d f470 8a3c
00000340: 02aa 9bbc 0c27 81bb cbf3 923c 70d1 a03d
00000350: 4965 c83d b00d 2f3d a6b3 583c 5969 93bd
00000360: 9fdb f03c 54b7 14bd 46ab 0fbb 3259 17bd
00000370: 8b1c eebc ebfe 143d c18c 72bd 86a2 85bd
00000380: c143 c2bc e939 44bc 84f0 883c 0764 a23b
00000390: 6370 913d c16d 70bc 7ba7 0dbd 9de7 c8bd
000003a0: fcfa 0c3e c30c 583d e81b 9fbc 36f6 673d
000003b0: ef79 1a3d 9fc2 98bd ad62 903d 84ac 8abc
000003c0: 2c38 983d cba1 3ebb 4608 423c da85 3a3d
000003d0: 3c89 1ebc fb01 94bd 99c2 f53c e885 3039
000003e0: 5733 95bc b3a7 71bd 183f 943c b606 9cbc
000003f0: 216d 3dbd db6d f73b c7e7 8c3d 0e91 233c

fc2.weight f4 [128, 256]
-0.022166518 0.031921424 0.3263051 -0.022182953 -0.086456224 0.06005158 -0.07821825 -0.11853342
-0.008658006 0.19780858 0.033421967 0.0041331938 -0.1180371 0.036941107 0.11900882 -0.0207183
0.07886212 0.055055417 0.058019944 0.06667409 -0.044694725 -0.0690065 0.14622547 -0.043287706
-0.02937863 -0.03363005 0.17933388 -0.023764476 0.07982021 -0.14579917 -0.03492505 0.24088167
-0.035497155 0.21054095 0.009412539 -0.10489983 0.0535579 -0.026070837 -0.048566613 0.020617872
-0.004818411 0.24042282 0.15002668 0.11544943 0.17358038 -0.13465253 0.0660901 -0.10856619
-0.22621238 0.03390822 0.054511882 0.14219421 -0.037213348 0.0060034776 0.021321252 -0.06608551
-0.03256614 -0.04679033 0.032564722 -0.005889428 -0.09968267 0.084733285 -0.14847195 0.018605903
-0.2414654 -0.00029718864 0.09874096 0.03584023 -0.022365263 -0.016886579 -0.06462923 0.04389258
0.19447353 0.14355935 -0.10117614 0.03257999 -0.030464217 0.090851694 -0.004324397 0.20509405
0.2588289 0.24213786 0.19254185 0.057950214 -0.17644699 -0.047274817 -0.001134922 -0.014774415
0.14568874 0.12338535 -0.018386766 -0.0012370825 -0.06451094 0.062398408 -0.045390904 0.08579177
-0.29196596 -0.0119579425 0.0941495 -0.04319388 0.031279687 0.20173839 0.115057886 0.0781919
0.0006686557 0.046160307 0.06394359 0.11830494 0.07275298 0.033053998 0.050799247 0.029562553
0.037346683 -0.112482406 -0.108152956 0.009489857 -0.26916182 0.018709889 -0.0029537992 0.025944587
0.02796695 -0.034061424 0.004418416 -0.08312427 0.15291195 0.08352748 -0.09287438 0.09553776
-0.02508434 0.0101288445 0.010879198 -0.025078688 0.11178444 0.1460545 0.0030066255 0.13188355
0.0036307406 0.14256187 0.12935685 0.15404081 -0.075762816 -0.03637186 0.12943996 -0.045160215
0.09473137 -0.035851777 -0.029934853 -0.16884051 -0.028252197 0.0032202257 0.073891535 0.054227863
-0.13968106 -0.058720473 0.044397067 0.03670182 0.030512564 0.11812683 -0.04311608 0.00025567002
0.013800544 -0.05432472 -0.09915546 0.04299325 0.088854216 0.00690584 -0.07553719 0.060112134
-0.11808354 -0.09882344 0.018516459 0.06152657 -0.22279808 -0.05451697 0.0071635274 0.22639917
0.02692843 -0.028740335 0.042496625 -0.036985576 0.12245419 0.16180438 0.1875143 0.034821905
0.077182464 -0.10985156 0.039916605 0.025553713 -0.07627054 -0.019902207 0.25747308 0.11180991
0.04207302 0.0057501895 0.0131315105 0.050546013 0.08378952 -0.04745428 -0.005321793 -0.0459251
0.15848342 0.05215931 -0.099160396 0.022101982 0.04591634 -0.17791201 -0.10954877 -0.039783873
-0.034450617 0.05369014 -0.13887385 0.1382299 0.05228259 -0.026365712 -0.023529736 0.040926848
-0.021530434 0.06983386 -0.096699506 0.037990186 0.014561286 0.13279222 0.017497316 0.112905644
-0.07703837 0.050193995 -0.14539598 -0.009283458 -0.02290007 -0.07850565 0.23146918 0.116443336
0.048318695 0.050473507 0.1008661 0.11649307 -0.200821 -0.04194286 -0.092721686 -0.06012125
-0.025713727 0.017530719 -0.062935494 -0.17303646 -0.1280442 0.060502473 -0.08160841 -0.11515926
0.09396738 0.21073301 0.034875203 -0.067004226 0.06744788 0.06063434 0.05228514 -0.23836675
00000000: 8f96 b5bc 0ac0 023d 7611 a73e 06b9 b5bc
00000010: f60f b1bd a5f8 753d e430 a0bd a6c1 f2bd
00000020: 4fda 0dbc 558e 4a3e 79e5 083d be6f 873b
00000030: 6fbd f1bd 8f4f 173d e5ba f33d 6db9 a9bc
00000040: 7782 a13d ca81 613d 52a6 6d3d 6d8c 883d
00000050: d111 37bd 4853 8dbd 21bc 153e 734e 31bd
00000060: 74ab f0bc aabf 09bd 4da3 373e b8ad c2bc
00000070: c778 a33d 614c 15be 920d 0fbd afa9 763e
00000080: 7765 11bd 0c98 573e 0d37 1a3c b9d5 d6bd
00000090: 875f 5b3d 8292 d5bc c9ed 46bd d0e6 a83c
000000a0: c3e3 9dbb 6631 763e 98a0 193e c070 ec3d
000000b0: 0ebf 313e 5ae2 09be 3f5a 873d f357 debd
000000c0: 38a4 67be 58e3 0a3d da47 5f3d 5c9b 113e
000000d0: 066d 18bd d2b8 c43b e8a9 ae3c d757 87bd
000000e0: 1364 05bd 38a7 3fbd 9662 053d 1afc c0bb
000000f0: 6d26 ccbd a588 ad3d 0809 18be 686b 983c
00000100: b542 77be fccf 9bb9 b338 ca3d 34cd 123d
00000110: 5b37 b7bc b955 8abc 545c 84bd b5c8 333d
00000120: 1224 473e 3901 133e 7035 cfbd 9872 053d
00000130: 1890 f9bc 7410 ba3d acb3 8dbb 2d04 523e
00000140: 3985 843e fdf2 773e b129 453e 345d 6d3d
00000150: 85ae 34be 3da3 41bd aac1 94ba 6310 72bc
00000160: 6e2f 153e 75b1 fc3d d89f 96bc 9a25 a2ba
00000170: 501e 84bd 7995 7f3d d0eb 39bd 98b3 af3d
00000180: 907c 95be 3feb 43bc 74d1 c03d 11ec 30bd
00000190: 211f 003d 8294 4e3e 78a3 eb3d 1323 a03d
000001a0: b948 2f3a 9712 3d3d dbf4 823d dc49 f23d
000001b0: 84ff 943d a163 073d df12 503d 2b2d f23c
000001c0: d6f8 183d 2d5d e6bd 4c7f ddbd 587b 1b3c
000001d0: 94cf 89be 7b45 993c 8794 41bb be89 d43c
000001e0: f21a e53c fe83 0bbd 5cc8 903b 0f3d aabd
000001f0: f394 1c3e 7510 ab3d ec34 bebd 4da9 c33d
00000200: ac7d cdbc 74f3 253c aa3e 323c d271 cdbc
00000210: 3eef e43d 508f 153e ce0a 453b 7b0c 073e
00000220: b8f1 6d3b bdfb 113e 1f76 043e e0bc 1d3e
00000230: 8929 9bbd a9fa 14bd e98b 043e ebf9 38bd
00000240: 8502 c23d 50d9 12bd f039 f5bc 87e4 2cbe
00000250: 2771 e7bc 6c0a 533b 7254 973d 091e 5e3d
00000260: 8d08 0fbe e184 70bd b3d9 353d a654 163d
00000270: 7cf5 f93c 7bec f13d 7d9a 30bd 730b 8639
00000280: ad1b 623c 9983 5ebd 0512 cbbd b119 303d
00000290: 33f9 b53d 624a e23b 3eb3 9abd 2438 763d
000002a0: c8d5 f1bd f263 cabd d4af 973c 4903 7c3d
000002b0: 2e25 64be 304d 5fbd 06bc ea3b 2fd5 673e
000002c0: 0399 dc3c da70 ebbc f110 2e3d 307e 17bd
000002d0: 43c9 fa3d 0cb0 253e c003 403e 6aa1 0e3d
000002e0: d711 9e3d dbf9 e0bd 987f 233d 0556 d13c
000002f0: bb33 9cbd f409 a3bc 83d3 833e 98fc e43d
00000300: c254 2c3d 166c bc3b 8c25 573c 5609 4f3d
00000310: d799 ab3d 6b5f 42bd 6f62 aebb f51b 3cbd
00000320: 7a49 223e 00a5 553d 9b14 cbbd 370f b53c
00000330: c612 3c3d 912e 36be 1b5b e0bd 6af4 22bd
00000340: 171c 0dbd 31ea 5b3d f234 0ebe 248c 0d3e
00000350: 4526 563d e8fc d7bc 6fc1 c0bc e9a2 273d
00000360: 9860 b0bc 0e05 8f3d 640a c6bd 999b 1b3d
00000370: 7692 6e3c affa 073e 8856 8f3c 133b e73d
00000380: 4bc6 9dbd 3898 4d3d afe2 14be a519 18bc
00000390: ed98 bbbc 92c7 a0bd 4206 6d3e d879 ee3d
000003a0: d3e9 453d 4fbd 4e3d e392 ce3d eb93 ee3d
000003b0: 05a4 4dbe 47cc 2bbd dee4 bdbd b341 76bd
000003c0: 98a5 d2bc 959c 8f3c 53e4 80bd 7830 31be
000003d0: 051e 03be 71d1 773d 4f22 a7bd 9ed8 ebbd
000003e0: f871 c03d 65ca 573e 4dd9 0e3d 8339 89bd
000003f0: 1d22 8a3d b75b 783d f128 563d 6a16 74be

fc2.bias f4 [128]
-0.026904762 0.16657333 0.043180287 0.050820857 0.02596106 0.002229049 -0.029523425 -0.060217485
-0.028478865 -0.025084522 -0.059843093 0.078829676 0.06592844 -0.08008672 0.11826525 0.062148422
0.10099164 -0.025027141 0.022585277 -0.021876475 0.10019328 -0.04967472 0.0133519415 0.17448173
-0.016051615 0.013777033 0.17180452 -0.076883115 -6.939744e-05 -0.024485383 -0.09423308 -0.012433579
0.09700051 0.05421449 0.060323507 -0.10318707 -0.09119961 0.07800348 0.20901467 -0.117468916
0.10776081 0.11378968 0.05051234 -0.04998161 0.07125569 -0.09113473 0.026502725 -0.0001989084
-0.022866478 -0.035564 0.008778612 0.054363277 -0.06805794 -0.061946835 0.034885287 0.029134607
0.029249275 0.0013461568 0.057310034 0.012261981 -0.017185751 0.05085337 0.06412664 0.043565053
0.0058475686 0.009721092 -0.053300187 0.044995777 -0.038903285 0.18976171 0.100830436 0.123329036
-0.04198742 0.016151112 0.06479763 0.077233166 0.07335367 0.018643431 -0.027883342 0.13704383
-0.02669879 -0.041918036 -0.036101416 -0.020017423 0.086186886 0.10329176 0.050494727 0.15891232
-0.06107675 0.12105743 -0.007188864 0.04357474 -0.029518874 0.04469017 0.015057967 0.10153746
-0.10660595 -0.02515385 0.013258502 -0.06865366 0.050777838 0.1476569 -0.0106408885 0.14355353
0.012621929 0.055582747 -0.06299574 0.14643466 -0.05177949 0.08111722 0.087170795 0.0775401
-0.07948954 0.013313582 0.060783807 0.039705273 0.15629867 -0.05311112 0.12422573 -0.065496005
-0.05545086 -0.0592751 0.082682185 -0.10309394 -0.010582548 0.117866166 -0.007963615 -0.05981783
00000000: 6067 dcbc 3392 2a3e d0dd 303d 8829 503d
00000010: 4aac d43c 3d15 123b 1cdb f1bc 9ca6 76bd
00000020: 824c e9bc 0e7e cdbc 081e 75bd 7471 a13d
00000030: 7d05 873d 8204 a4bd 0d35 f23d 588f 7e3d
00000040: b4d4 ce3d b805 cdbc c204 b93c 4b36 b3bc
00000050: 2232 cd3d b877 4bbd 1ac2 5a3c 57ab 323e
00000060: ad7e 83bc 11b9 613c 86ed 2f3e e574 9dbd
00000070: 7889 91b8 9295 c8bc 46fd c0bd 36b6 4bbc
00000080: 34a8 c63d 0310 5e3d c815 773d be53 d3bd
00000090: dcc6 babd 4ac0 9f3d f107 563e 8b93 f0bd
000000a0: b3b1 dc3d 900a e93d 07e6 4e3d 84b9 4cbd
000000b0: 81ee 913d d8a4 babd 3e1c d93c 1192 50b9
000000c0: 7b52 bbbc 8fab 11bd 2bd4 0f3c 07ac 5e3d
000000d0: f661 8bbd f7bb 7dbd e0e3 0e3d b3ab ee3c
000000e0: 2d9c ef3c 8771 b03a edbd 6a3d 7ae6 483c
000000f0: 22c9 8cbc a04b 503d d454 833d 4571 323d
00000100: f69c bf3b 3745 1f3c 4c51 5abd 7e4d 383d
00000110: 0d59 1fbd e550 423e 3080 ce3d ef93 fc3d
00000120: 00fb 2bbd 564f 843c 9fb4 843d 6c2c 9e3d
00000130: 733a 963d 1cba 983c 9b6b e4bc 3855 0c3e
00000140: 6cb7 dabc 3fb2 2bbd 14df 13bd 94fb a3bc
00000150: c082 b03d a18a d33d 8fd3 4e3d e9b9 223e
00000160: 9d2b 7abd f5ec f73d 9090 ebbb 6d7b 323d
00000170: 91d1 f1bc 0a0d 373d b1b5 763c dff2 cf3d
00000180: 3854 dabd 720f cebc 303a 593c 4a9a 8cbd
00000190: 6cfc 4f3d 5f33 173e 1f57 2ebc b2ff 123e
000001a0: 35cc 4e3c bcaa 633d e903 81bd f8f2 153e
000001b0: bb16 54bd c920 a63d 9a86 b23d 58cd 9e3d
000001c0: 69cb a2bd 3621 5a3c 71f8 783d ffa1 223d
000001d0: c20c 203e 0c8b 59bd 0f6a fe3d c522 86bd
000001e0: 7120 63bd 72ca 72bd 4755 a93d ea22 d3bd
000001f0: 6c62 2dbc d163 f13d d279 02bc 8a03 75bd

fc3.weight f4 [64, 128]
-0.18141945 -0.044730335 0.07509147 0.08006438 0.082879186 0.0863515 0.055994272 0.01122049
-0.08483001 0.121982634 -0.036142725 -0.06555067 -0.03523843 -0.007157351 0.037376117 0.23267008
-0.080845416 -0.13305058 -0.16013232 0.045045875 0.04343324 -0.0065490017 -0.0885699 0.07333438
0.051065646 0.03555188 -0.051591583 -0.042923447 0.04373955 -0.07116619 0.16915357 -0.030468376
-0.009125727 0.05127871 -0.13197091 0.10382471 0.06199416 0.09956647 0.037918303 0.038462587
0.030294416 0.17978287 0.011300401 0.018957268 -0.015378189 0.019457042 0.13320573 -0.090807684
0.056422736 -0.0698452 -0.064211026 0.010046299 -0.0154116275 0.04619847 0.024048973 -0.025798501
0.053011257 0.14977473 0.13539703 0.058976285 0.040651277 -0.058825143 -0.061111867 0.10636408
-0.12275237 -0.0048155175 0.087566346 -0.038103953 0.016522836 -0.0056798067 0.06302005 -0.07425586
0.020664891 0.052431297 -0.08917995 0.13863185 0.13997221 -0.05378556 -0.004656125 -0.020600457
0.1423784 0.07053169 -0.030214004 -0.030366585 -0.069699384 0.0191762 0.032959625 -0.012909432
0.039913103 0.11462309 0.015078366 -0.036477547 0.10290012 0.021540923 0.074524045 0.04471932
-0.07923322 -4.2496096e-05 -0.006547282 0.0753234 -0.18836792 0.018569099 -0.12408342 0.1206064
0.20325026 0.055678744 0.063443385 0.069121115 0.025309939 -0.055739354 0.019966453 0.11645933
0.02294508 -0.11185212 -0.061948854 -0.031145662 0.006923329 0.05186335 -0.07913644 0.036615945
-0.18358263 0.049939904 0.021547686 -0.10226279 0.068562016 0.11557174 -0.044617586 0.07615446
0.10553295 0.007106749 -0.010455603 0.11273225 -0.027247772 -0.004537643 0.056839496 0.037094556
0.0320437 0.08233787 0.031732567 -0.03899715 0.10693787 -0.090886414 0.02198577 -0.070099235
0.16226383 0.20308274 0.0811504 -0.102996655 -0.24993329 0.08540852 -0.013391812 -0.038701374
-0.03601107 0.027838273 -0.06633241 0.07132544 0.038285054 0.00821329 -0.10473829 0.05605761
-0.20363498 0.004478697 -0.054827467 0.11762891 -0.026616715 -0.09483561 0.0070294035 0.0321257
0.014564073 -0.02132547 0.07519744 0.046958894 -0.08098686 -0.016294103 -0.030935697 -0.04893394
0.046598572 0.16705869 -0.0145483995 0.08156979 0.096460424 0.01652771 -0.011205448 -0.029829422
0.07416237 0.035524704 0.06870381 0.065751866 0.16126359 -0.085475504 0.06453015 0.07653513
0.030401917 0.023501366 -0.036757734 0.017022196 -0.027341373 -0.06387627 0.05033871 -0.055371348
-0.029618641 0.048735548 0.02028706 -0.056614727 0.009163583 0.06851875 -0.067358956 -0.107986026
-0.012701896 0.11877491 0.17114541 0.12744308 0.084574826 0.0445602 -0.21327017 -0.008551125
-0.031210855 -0.1565028 0.04417451 0.043190382 0.011117945 -0.05091948 0.11012627 -0.028600417
-0.09869278 -0.08350971 -0.08673776 0.097481966 0.20524433 0.0035701194 0.08848172 0.038438138
-0.06134055 0.014739314 -0.024790931 -0.08652844 0.04413101 0.004016372 0.14927085 -0.07129436
-0.05302357 0.011870638 0.042457838 0.02001318 0.011684943 0.046282213 0.0070241475 0.056582447
0.052489787 -0.09616993 -0.049703747 0.07369128 0.06658908 -0.058905456 0.040370893 0.082578264
00000000: 05c6 39be 2837 37bd 8ec9 993d cbf8 a33d
00000010: 90bc a93d 0ed9 b03d 405a 653d 25d6 373c
00000020: 5bbb adbd 08d2 f93d 650a 14bd 6e3f 86bd
00000030: 2c56 10bd 3688 eabb b317 193d 1141 6e3e
00000040: 4892 a5bd 693e 08be baf9 23be 0682 383d
00000050: 0ee7 313d 0299 d6bb 2364 b5bd 5630 963d
00000060: 362a 513d d99e 113d b251 53bd 7fd0 2fbd
00000070: 3e28 333d 94bf 91bd 9836 2d3e d198 f9bc
00000080: 1384 15bc a009 523d 6223 07be 0da2 d43d
00000090: 97ed 7d3d 81e9 cb3d 3950 1b3d f28a 1d3d
000000a0: ff2b f83c 0019 383e 5125 393c 464c 9b3c
000000b0: cdf4 7bbc 6064 9f3c 1567 083e 61f9 b9bd
000000c0: 871b 673d 000b 8fbd 1281 83bd 3b99 243c
000000d0: 0d81 7cbc 9b3a 3d3d 5a02 c53c 6157 d3bc
000000e0: 5522 593d 8c5e 193e 85a5 0a3e 1e91 713d
000000f0: f481 263d a2f2 70bd 7050 7abd 69d5 d93d
00000100: 9865 fbbd 7dcb 9dbb fc55 b33d e412 1cbd
00000110: e65a 873c ac1d babb a810 813d 7513 98bd
00000120: 6b49 a93c 33c2 563d faa3 b6bd 82f5 0d3e
00000130: e054 0f3e 3f4e 5cbd 6892 98bb 4ac2 a8bc
00000140: a5cb 113e eb72 903d 5c83 f7bc 58c3 f8bc
00000150: 8dbe 8ebd 6817 9d3c ac00 073d 1582 53bc
00000160: ec7b 233d 83bf ea3d 400b 773c 7b69 15bd
00000170: 4cbd d23d 9776 b03c 10a0 983d 9b2b 373d
00000180: 0745 a2bd d63d 32b8 958a d6bb 2843 9a3d
00000190: 85e3 40be 391e 983c 731f febd 7d00 f73d
000001a0: d620 503e 650f 643d 9bee 813d 5f8f 8d3d
000001b0: ca56 cf3c f34e 64bd b090 a33c 3b82 ee3d
000001c0: 52f7 bb3c b912 e5bd 15be 7dbd 3025 ffbc
000001d0: 18dd e23b aa6e 543d 4912 a2bd 9afa 153d
000001e0: 16fd 3bbe c98d 4c3d c684 b03c 276f d1bd
000001f0: 3e6a 8c3d e0b0 ec3d eec0 36bd dff6 9b3d
00000200: a921 d83d bbdf e83b fa4d 2bbc 2ae0 e63d
00000210: b836 dfbc 82b0 94bb 88d0 683d 76f0 173d
00000220: 4140 033d c2a0 a83d 02fa 013d 7abb 1fbd
00000230: 3e02 db3d a822 babd 801b b43c 3090 8fbd
00000240: 7d28 263e ecf4 4f3e 2e32 a63d e9ef d2bd
00000250: 83ee 7fbe aaea ae3d 5569 5bbc 5585 1ebd
00000260: 5880 13bd 170d e43c 49d9 87bd 1313 923d
00000270: cad0 1c3d 0991 063c 0781 d6bd aa9c 653d
00000280: b085 50be 09c2 923b c492 60bd 6de7 f03d
00000290: 4c0b dabc 2c39 c2bd e956 e63b 3d96 033d
000002a0: 269e 6e3c c1b2 aebc 1e01 9a3d f857 403d
000002b0: 70dc a5bd 367b 85bc dc6c fdbc f46e 48bd
000002c0: 25de 3e3d 6f11 2b3e 695c 6ebc 100e a73d
000002d0: 0b8d c53d 1f65 873c 0e97 37bc d55c f4bc
000002e0: 71e2 973d 5a82 113d 95b4 8c3d eaa8 863d
000002f0: 4822 253e c80d afbd 6228 843d 73be 9c3d
00000300: 710d f93c f085 c03c 478f 16bd 2272 8b3c
00000310: 04fb dfbc 90d1 82bd f72f 4e3d 11cd 62bd
00000320: cba2 f2bc ed9e 473d 0c31 a63c d8e4 67bd
00000330: da22 163c 8f53 8c3d 7ef3 89bd c727 ddbd
00000340: 9d1b 50bc 4340 f33d be40 2f3e 7080 023e
00000350: 9135 ad3d c284 363d 7f63 5abe 051a 0cbc
00000360: e8ad ffbc 4542 20be 55f0 343d 66e8 303d
00000370: 0b28 363c f290 50bd e289 e13d 6c4b eabc
00000380: 711f cabd 2407 abbd 91a3 b1bd a0a4 c73d
00000390: 922b 523e aaf8 693b e735 b53d 4f71 1d3d
000003a0: 3b40 7bbd 2a7d 713c 5a16 cbbc d335 b1bd
000003b0: b8c2 343d c59b 833b 75da 183e c702 92bd
000003c0: 3e2f 59bd 107d 423c 45e8 2d3d aef2 a33c
000003d0: 3472 3f3c 6b92 3d3d d22a e63b ffc2 673d
000003e0: 88ff 563d bef4 c4bd 2896 4bbd 74eb 963d
000003f0: db5f 883d d946 71bd f35b 253d cb1e a93d

fc3.bias f4 [64]
0.062574305 -0.12386494 0.043017395 -0.12045084 0.17457779 -0.01448083 -0.026156202 0.15682633
-0.0011513461 0.10642298 -0.022454437 0.08826586 0.21906856 0.13684084 -0.077195555 0.05314392
0.067081906 0.10709678 -0.07503739 0.08637897 -0.04485283 -0.020505058 -0.07506939 0.0779345
-0.10629591 0.118116714 -0.067356385 0.08003823 0.104917474 -0.036270715 0.051006716 -0.11670418
-0.032500464 -0.02667738 0.034925908 0.18964736 0.019954521 0.103644244 0.06911852 -0.04212802
0.16532372 -0.072008885 0.19200921 0.07763178 -0.056680292 0.0031537686 -0.004271432 0.09252448
0.026396364 0.015767453 0.13720718 0.035846636 0.060322206 -0.0035125827 -0.060990606 0.030987274
0.09831942 -0.093769535 0.04282315 -0.08766211 0.020330803 -0.049324326 -0.009573355 -0.06227447
00000000: f526 803d e7ac fdbd 0233 303d eeae f6bd
00000010: 85c4 323e 0141 6dbc 8845 d6bc 1597 203e
00000020: c4e8 96ba 4bf4 d93d 5ef2 b7bc bbc4 b43d
00000030: 8253 603e 0120 0c3e b418 9ebd 70ad 593d
00000040: 3d62 893d 8e55 db3d 34ad 99bd 75e7 b03d
00000050: 9ab7 37bd 39fa a7bc fbbd 99bd 209c 9f3d
00000060: acb1 d9bd 2de7 f13d 25f2 89bd 15eb a33d
00000070: f9de d63d 9a90 14bd 6bec 503d 9a02 efbd
00000080: 351f 05bd 858a dabc 780e 0f3d eb32 423e
00000090: aa77 a33c 6f43 d43d 038e 8d3d 6e8e 2cbd
000000a0: 9f4a 293e 6579 93bd 109e 443e 69fd 9e3d
000000b0: 9829 68bd 75af 4e3b 5ef7 8bbb 797d bd3d
000000c0: 303d d83c bf2a 813c 0a80 0c3e ecd3 123d
000000d0: 6b14 773d 5c33 66bb 49d1 79bd 06d9 fd3c
000000e0: b15b c93d 3e0a c0bd 5467 2f3d 3188 b3bd
000000f0: c98c a63c 4e08 4abd 90d9 1cbc 8413 7fbd

fc4.weight f4 [10, 64]
-0.03569954 0.12651813 -0.1579943 -0.0030809422 -0.1709012 0.098244786 -0.024234839 -0.33693403
0.13477325 -0.14294727 0.14424561 -0.21564204 -0.14598343 -0.03497516 0.17896947 0.14079517
-0.22193041 -0.0475626 -0.17932402 0.15588409 -0.16055559 0.00097047846 -0.32262203 -0.115395755
0.044344462 -0.07509989 0.026310578 0.17121014 -0.16071548 0.01729172 0.12153396 -0.047777038
0.108436696 0.06066213 -0.047822695 0.0027731655 -0.13126326 0.082467124 0.10505807 0.08990343
-0.06455411 0.18235563 -0.20917054 -0.07502871 -0.017705005 -0.2398753 -0.35209364 0.06900507
-0.11266707 -0.0349201 -0.01153561 -0.050036687 -0.12721927 0.21622439 -0.107198104 -0.045636863
0.03961338 -0.14227769 -0.13262285 0.06929609 0.087437384 -0.12521447 0.1903474 -0.14354452
-0.09218248 0.03643827 -0.01337567 0.05062021 -0.2629105 -0.017598106 -0.24651408 -0.01866987
-0.19523263 0.03442311 -0.18785179 0.015727539 0.07639308 0.07525253 -0.030482521 -0.18914548
0.05868985 -0.25935352 0.14834282 -0.35594568 0.090007216 0.1431022 0.088099204 -0.12579654
-0.18393862 -0.22326407 -0.06717402 0.051295463 -0.033620574 0.04059728 0.15775973 -0.14770024
0.1609675 0.056404267 0.20634249 0.17888837 0.19308208 0.075867034 -0.010274389 0.030050598
0.118220225 -0.08220996 -0.1412919 0.010689965 0.11326751 -0.13177171 0.089755364 -0.28589097
-0.07014202 -0.115049385 -0.21474671 0.0884889 0.20429616 0.14596233 0.12659603 -0.050979387
-0.24692698 -0.11307025 -0.24873874 0.22043635 -0.2150795 -0.10447787 0.06511062 0.032103498
0.13393877 -0.04709625 0.08270649 0.04928858 0.14672434 -0.014715463 0.07473596 0.0597983
0.1619269 0.17875274 0.062577434 -0.10962766 -0.3458782 -0.12542515 0.14042714 -0.062115677
0.11959794 0.13833703 -0.11844607 -0.058573447 0.09127269 0.010457779 -0.24023482 0.14881462
-0.16500778 -0.04612251 -0.002765596 -0.16824584 -0.029531268 0.055303417 -0.076287545 0.0077049145
0.07045519 0.13236631 -0.07016342 0.21539347 -0.0851502 -0.24185729 -0.047836836 -0.030251486
0.10888065 0.044208117 -0.25089863 0.15336953 0.105064236 -0.1293037 -0.06552295 0.07976274
0.08334011 -0.073413394 -0.110429905 0.155721 -0.0706211 -0.08908289 -0.22630234 -0.0029771228
-0.19107099 -0.010198684 -0.049387265 0.1671788 -0.16374329 -0.02332807 -0.16739157 -0.10919389
0.014463225 0.10862128 0.12033347 0.07811447 -0.066348426 0.03467348 0.20633085 0.12797573
-0.02944727 0.060073707 0.073569104 -0.14958698 0.10585467 -0.052522074 -0.0784517 0.15804456
-0.076642424 -0.048155125 0.041276388 -0.1289221 -0.24465673 -0.009718269 0.1106956 0.02651022
0.10116087 0.010030905 0.04117784 -0.20700523 -0.15697767 -0.0743787 -0.14145191 -0.14152478
0.09641198 -0.13244687 0.14290349 -0.1512654 -0.31799573 -0.14773396 -0.08560492 -0.035377182
-0.24194549 -0.047568467 0.116178595 0.1240492 -0.053440027 0.18163273 -0.028289184 0.007376933
0.1527363 -0.09814472 0.10619827 0.010338321 -0.15133956 -0.21504992 -0.17681925 0.15249304
-0.13874452 -0.08615043 -0.11944842 -0.1908158 -0.013119848 -0.111685075 -0.12179638 0.007366515
00000000: ae39 12bd f88d 013e 42c9 21be a2e9 49bb
00000010: b900 2fbe 9034 c93d 2488 c6bc 9e82 acbe
00000020: 0002 0a3e c560 12be 1fb5 133e 44d1 5cbe
00000030: ae7c 15be 1d42 0fbd c643 373e 9c2c 103e
00000040: ba41 63be 00d1 42bd b7a0 37be 14a0 1f3e
00000050: af68 24be b567 7e3a b72e a5be 9c54 ecbd
00000060: 8aa2 353d f9cd 99bd 4889 d73c b651 2f3e
00000070: 9992 24be 5da7 8d3c cce6 f83d dbb1 43bd
00000080: 0f14 de3d db78 783d bbe1 43bd ffbd 353b
00000090: e069 06be 86e4 a83d af28 d73d 4a1f b83d
000000a0: f234 84bd 6fbb 3a3e cd30 56be a7a8 99bd
000000b0: 160a 91bc dfa1 75be 9e45 b4be 8852 8d3d
000000c0: febd e6bd 6108 0fbd dbff 3cbc 45f3 4cbd
000000d0: c545 02be ed69 5d3e ae8a dbbd b8ed 3abd
000000e0: a441 223d 3eb1 11be 49ce 07be 1ceb 8d3d
000000f0: 5f12 b33d 3938 00be 6eea 423e 56fd 12be
00000100: 2bca bcbd 4c40 153d a025 5bbc 2357 4f3d
00000110: 349c 86be e729 90bc 306e 7cbe 8ef1 98bc
00000120: 10eb 47be 3fff 0c3d 385c 40be 0ad7 803c
00000130: fa73 9c3d 001e 9a3d 7bb6 f9bc 5aaf 41be
00000140: c564 703d fcc9 84be 2ee7 173e 833e b6be
00000150: b455 b83d 6289 123e 5b6d b43d cfd0 00be
00000160: 685a 3cbe 569f 64be 8892 89bd 311b 523d
00000170: bab5 09bd 5549 263d c48b 213e bb3e 17be
00000180: aad4 243e 2908 673d 724b 533e 832e 373e
00000190: 4fb7 453e 2d60 9b3d e955 28bc ac2c f63c
000001a0: 721d f23d b25d a8bd d3ae 10be f724 2f3c
000001b0: ccf8 e73d 2aef 06be a9d1 b73d 4d60 92be
000001c0: 9fa6 8fbd 039f ebbd 90e6 5bbe ab39 b53d
000001d0: 0333 513e 2677 153e 64a2 013e c3cf 50bd
000001e0: 6dda 7cbe 6091 e7bd 5eb5 7ebe 11ba 613e
000001f0: cd3d 5cbe 7ef8 d5bd b758 853d f57e 033d
00000200: 3f27 093e ffe7 40bd 0562 a93d d2e2 493d
00000210: e83e 163e 2019 71bc 2b0f 993d 10ef 743d
00000220: 2ad0 253e f50a 373e 9928 803d 7784 e0bd
00000230: f316 b1be 736f 00be 22cc 0f3e 026d 7ebd
00000240: c4ef f43d 39a8 0d3e da93 f2bd b6ea 6fbd
00000250: 2ded ba3d 1b57 2b3c 1e00 76be dc62 183e
00000260: cdf7 28be f5ea 3cbd 003f 35bb a348 2cbe
00000270: 8feb f1bc d685 623d a53c 9cbd 8279 fc3b
00000280: d04a 903d 098b 073e d7b1 8fbd 1b90 5c3e
00000290: 3a63 aebd 70a9 77be 8ff0 43bd f7d1 f7bc
000002a0: d1fc de3d 9213 353d c975 80be e70c 1d3e
000002b0: eb2b d73d 3068 04be e530 86bd a65a a33d
000002c0: 38ae aa3d c359 96bd 1329 e2bd 5375 1f3e
000002d0: cca1 90bd 1771 b6bd cdbb 67be d51b 43bb
000002e0: 1da8 43be 6218 27bc 4d4a 4abd eb30 2b3e
000002f0: 52ac 27be 821a bfbc b268 2bbe 0ca1 dfbd
00000300: 2af7 6c3c d574 de3d 6571 f63d 7bfa 9f3d
00000310: afe1 87bd c705 0e3d 6548 533e 120c 033e
00000320: 673b f1bc d90f 763d 66ab 963d 542d 19be
00000330: 55ca d83d 6321 57bd 49ab a0bd 6fd6 213e
00000340: b4f6 9cbd 4f3e 45bd 6e11 293d 2804 04be
00000350: 4b87 7abe 6039 1fbc 60b4 e23d f62b d93c
00000360: 6e2d cf3d aa58 243c 18aa 283d 2ef9 53be
00000370: c1be 20be dc53 98bd c5d8 10be dfeb 10be
00000380: a573 c53d 27a0 07be 4b55 123e 51e5 1abe
00000390: 56d0 a2be 9247 17be a251 afbd aae7 10bd
000003a0: 8fc0 77be 27d7 42bd 0bef ed3d 820d fe3d
000003b0: eee3 5abd eefd 393e b8be e7bc 33ba f13b
000003c0: e866 1c3e 1900 c9bd 7b7e d93d 1062 293c
000003d0: c2f8 1abe 0c36 5cbe 1b10 35be 2327 1c3e
000003e0: 0b13 0ebe a36f b0bd 60a1 f4bd 3865 43be
000003f0: a2f4 56bc 25bb e4bd 6170 f9bd cf62 f13b

fc4.bias f4 [10]
0.0020071014 0.0029977083 -0.06586274 -0.13870496 0.02442143 0.00045376492 0.02738399 -0.06420488
0.08917386 -0.01729861
00000000: 9389 033b 3375 443b 0be3 86bd ac08 0ebe
00000010: 730f c83c 4ce7 ed39 6454 e03c d97d 83bd
00000020: c9a0 b63d d1b5 8dbc
